fmodel-cowden-['CS2' 'CS3' 'CS4' 'CM2' 'CM9' 'CM3' 'CL1' 'CL2']-1-0.04.pt (torch, 45083 bytes, 15 tensors)

lfmodel.lfmodel.net_l.0.weight f4 [16, 3]
00000000: 910b 353e 2d9b 2bbd 3eb9 f5c0 d43e 64bd
00000010: 7345 603e ad85 dbbf 7b88 cabe 95f1 2f3e
00000020: 57cc a241 681e 10bf 498e 343e 6bf7 2ec0
00000030: 0869 80bf 92d4 a13c 0ac5 533e 15d8 8bbe
00000040: 2234 fd3d 98dc d7c0 d7cf 9abe 7369 943d
00000050: 15a3 61c0 03bb 82be 07be a23e b265 3a3e
00000060: 19da 1f3e 7516 743e ebbd 55be 9a6d 443f
00000070: 791c 073d 9e9b a23d 783b 61bf a6bb 213d
00000080: 7a14 053e d345 9b3d c9bf 293f 284f 3140
00000090: 77e0 173f de2a babd 8ea9 8a3f 3a3b cb3d
000000a0: 76b7 09bc 7a5c 8a40 3b20 4fbe f4b9 c43d
000000b0: a52e b641 5f52 4cbf e51e e3bb 0750 443d
0.17680193 -0.041896034 -7.6788626 -0.05572398 0.21901493 -1.715017 -0.3955725 0.17182
20.349775 -0.56296396 0.17632402 -2.7338512 -1.0032053 0.019754682 0.20680633 -0.27313295
0.12363459 -6.745678 -0.30236694 0.07246675 -3.5255787 -0.25533304 0.31785604 0.18202856
0.15610541 0.23836692 -0.20873229 0.7672974 0.032986138 0.07939838 -0.8798137 0.039485596
0.12996092 0.07581677 0.66308266 2.7704563 0.5932688 -0.090902075 1.0832994 0.09923406
-0.008405557 4.3237886 -0.20227139 0.0960578 22.772776 -0.7981319 -0.006931173 0.047927883

lfmodel.lfmodel.net_l.0.bias f4 [16]
00000000: e6eb cbbd 498b 81bf f42d e5bd 2056 f63c
00000010: 0944 413e faaa f2be 5e37 373e dd68 b6bf
00000020: 93c1 98bf f0c2 37bf cf9e 4a3e 04fb 1bbe
00000030: 0ca7 1abf 0a45 14bf 131d 18be 0ac8 5b3f
-0.099571034 -1.0120631 -0.111904055 0.030070364 0.1887361 -0.4739607 0.17892215 -1.4250752
-1.1934074 -0.71781826 0.19787143 -0.15232474 -0.60411143 -0.57917845 -0.14854841 0.8585211

lfmodel.lfmodel.net_l.2.weight f4 [16, 16]
00000000: f2e6 49bd 34e8 d7bf a4c5 593e 1ba9 603e
00000010: 24bb 7c3f 9469 213e f395 e73e d6b0 43bf
00000020: 2b40 e9be e2a6 9cbf 6057 293f f39a 203e
00000030: 525f 8dbf 57ea 88be 823b 23be 92a2 853f
00000040: 249c 68c0 2979 c5bf 9dea b740 4d16 5ec0
00000050: 183a bb3d fe49 1ec0 3665 44c0 035b 50bf
00000060: d723 a3bd 43e4 943c c436 ac3c bd7f 9f3e
00000070: a9b0 c43f b4f2 6a40 f240 fb40 a049 c13e
00000080: 577e e13e 5dd0 59bf 5622 bd3d 4d0d 49bd
00000090: 2b5f 443e aa30 9bbe e4be 003e 7b15 a73e
000000a0: d1ad b5bd 173f bcbb 352f 0c3e f8b1 853e
000000b0: aa5f 16be 6008 acbe 7717 203d c0f1 8c3e
000000c0: 4324 eabe 93a9 ae3e 24c6 293f 5a1f e23c
000000d0: 31bc 413d 3992 9dbd 785f 56be b59c b5bb
000000e0: 29eb 90be 475e 91bd a840 f0bd e686 8abd
000000f0: c484 02bd 32fa b23f a808 0c3e 656e 3a3e
00000100: ef06 5340 cef9 a33f 25b0 72c0 49c3 0b40
00000110: 4336 2cbe d881 cb3f 4248 2e40 60c1 713e
00000120: da5b 643e 7a18 1d3e cd68 263e fea7 fc3c
00000130: 14a5 70bf 5e0f 39c0 09ba acc0 cf2e 1fbd
00000140: ae6d cdbe 3f22 80bd a39c ab3e d5fb e03d
00000150: 6c70 3540 c66e 143e 64c7 913e ff1e a9bf
00000160: ca22 40bf 1d72 02c0 59c4 2440 e6b7 f1bd
00000170: d960 0c3e 783a 1e3f 453f a73c e854 fd3f
00000180: 92c1 0dbf 2c47 27bf 5612 093f 4bc4 953f
00000190: f1b7 603f 26b2 76be f87f e7be d0a1 7a3e
000001a0: d0c1 37bf d973 8cbf bfcc 863f 01ad 0cbe
000001b0: e192 fcbf f673 1e3f 6d53 d73e 4a38 b53f
000001c0: 64a5 1c3f c294 c33f 6fde 17c0 1a83 063f
000001d0: 9f4e 9e3e 1174 4c3f 7876 683f 2819 623f
000001e0: 70ed 9b3e aec6 24be 52b9 52bc 9d42 6dbd
000001f0: 2f3b 83be 9d8f a9bf ed95 1cc0 2e9f f1bd
00000200: 4d51 c740 9783 4040 991f d3c0 30a9 6d40
00000210: 5823 0a3e 4cf0 3740 e9dc 9740 e159 393f
00000220: f0ce b23e 4fe6 8e3e 0430 813d 6b07 6fbe
00000230: 7011 eabf 7f81 64c0 8073 22c1 e45c adbd
00000240: b549 0b41 4660 8e40 e7e5 07c1 0429 bb40
00000250: f521 4c3d b221 5040 d80a f640 e39b 813f
00000260: 095a da3e e0a9 b93e c469 373e 38b6 55bc
00000270: f850 28c0 3047 76c0 3ace 86c1 19c5 b0be
00000280: 7418 733f 3fa4 6a3d 7e76 69bf 695c df3e
00000290: d8df 04bd f3f1 553e 30da be3e 8a32 9c3e
000002a0: 9384 48be 0448 bcbd 935f 613e 52bb adbd
000002b0: fc4d f9bd c478 64bf 4db9 89bf 5574 14be
000002c0: 2b1c 8e3d b73b 0f3e 4b29 0fbe 2ea6 ffbd
000002d0: cff1 78bf 6718 723e 58da e13e ecf1 ac3f
000002e0: 797e 7a3f 34b9 ce3f 3b8c 53bf 676c d7bc
000002f0: a304 4c3f 4fb2 0fbf 3661 0cbd 234e 78bf
00000300: 54db 5f41 cce9 0d40 1c4a b1c0 5be8 2940
00000310: 3415 afbe 0e22 6140 045a c140 1f30 923e
00000320: a14d ebbd e081 82bc ab5f a6be 5b13 993d
00000330: 8a15 38c0 2b73 7bc0 f025 b3c0 a0c1 12be
00000340: 661a 02bf 9ee9 7d3d efc4 823e 1af4 983d
00000350: 97ec 94be 3922 933e e81d 4fbd f8e0 b23d
00000360: 25cd ec3d de3b 1c3e c2c7 7fbe cc78 6abd
00000370: b855 bb3e f0c9 3a3f 8814 9cbb b487 8a3d
00000380: 6657 42be a320 123f 6379 6d3e 9bf2 a3bc
00000390: de59 bcbe 4a35 24be 431e d6be 21d0 c13d
000003a0: 1fde ba3e 42c3 f63e db32 50be f143 393d
000003b0: 65d3 0d3f 7bfc 443f 339e f13e cd9b adbe
000003c0: 0380 9d3e 4e58 ad3d c40a ce3d 67bb 823d
000003d0: 6f5f 553d 8207 30be 50ab 123f 5d87 86be
000003e0: d02b e23d 4552 c4bd 0afa 90bd 6368 bb3e
000003f0: 2d79 a4be e375 63bf ef6d af3d 3bc2 0ebe
-0.049292512 -1.6867738 0.212668 0.21939509 0.98723054 0.15762931 0.4523159 -0.76441705
-0.4555677 -1.2238429 0.6614895 0.15684108 -1.1044714 -0.26741287 -0.15940669 1.0440238
-3.63453 -1.54276 5.7473893 -3.4701111 0.0914194 -2.4732661 -3.0686774 -0.8138887
-0.0796582 0.01817525 0.021022208 0.31152144 1.5366412 3.6710634 7.851678 0.37751484
0.44041702 -0.8508356 0.09235065 -0.04908495 0.19176929 -0.30310565 0.12572819 0.32633576
-0.088710435 -0.0057448256 0.13689883 0.26112342 -0.1468493 -0.3360014 0.039084878 0.2752819
-0.4573079 0.3411375 0.66317964 0.02760284 0.047298614 -0.076939054 -0.20934856 -0.0055423626
-0.28304413 -0.0709806 -0.11731082 -0.06764011 -0.031864896 1.3982604 0.13675177 0.18206175
3.2972982 1.2810609 -3.792001 2.1837943 -0.16817574 1.5899 2.7231603 0.23608923
0.22300664 0.15341368 0.16250916 0.030841824 -0.9400189 -2.891563 -5.3977094 -0.038863
-0.4012274 -0.06256532 0.33517942 0.10985533 2.8349867 0.14495382 0.28472435 -1.3212584
-0.75053084 -2.038215 2.574484 -0.11802654 0.1370882 0.61807966 0.020415911 1.9791536
-0.5537349 -0.65342975 0.53543603 1.1700529 0.8778067 -0.24091396 -0.4521482 0.24475789
-0.7178011 -1.0972854 1.0531234 -0.13737871 -1.9732324 0.6189569 0.42055836 1.4157803
0.61189866 1.5279772 -2.3729513 0.52543795 0.30919358 0.79864603 0.9080577 0.88319635
0.30454588 -0.16091415 -0.012861567 -0.057924856 -0.2563109 -1.3246952 -2.4466507 -0.11797939
6.2286744 3.0080316 -6.597607 3.7134514 0.13490045 2.8740416 4.7457166 0.7240277
0.34923506 0.27910087 0.063079864 -0.23342673 -1.8286572 -3.5704038 -10.153198 -0.08464983
8.705495 4.449252 -8.4936285 5.848757 0.04983707 3.2520566 7.6888237 1.0125698
0.42646816 0.36262417 0.1791144 -0.013043933 -2.629942 -3.848095 -16.850697 -0.34525374
0.9495919 0.057285544 -0.9119643 0.4362519 -0.032440037 0.20893078 0.3727584 0.30507308
-0.19581823 -0.091934234 0.22009115 -0.08482994 -0.121730775 -0.89246774 -1.0759674 -0.14497502
0.06938966 0.13987623 -0.13980596 -0.12482868 -0.9724397 0.23642121 0.44111896 1.3511329
0.9784923 1.615027 -0.8263585 -0.026296807 0.79694575 -0.5613145 -0.034272395 -0.9699423
13.991047 2.2173948 -5.5402966 2.6548069 -0.34195864 3.5177035 6.042238 0.28552338
-0.11489416 -0.01593107 -0.32494864 0.07474395 -2.8763146 -3.9289043 -5.598381 -0.14331675
-0.5082153 0.061990373 0.25540873 0.07468434 -0.29086754 0.28737047 -0.05056563 0.08734316
0.11562566 0.15257213 -0.24978545 -0.057244107 0.36588836 0.7296438 -0.0047631897 0.067641646
-0.18978652 0.5708105 0.23190837 -0.020013144 -0.36787313 -0.16035953 -0.41819963 0.094635256
0.3649759 0.48195845 -0.203319 0.04523081 0.5540069 0.76947755 0.4719101 -0.3390793
0.30761728 0.084641084 0.10060647 0.063834004 0.052092966 -0.17190364 0.5729265 -0.2627515
0.11043513 -0.09586004 -0.07078941 0.36603078 -0.321237 -0.88851756 0.0856589 -0.1394128

lfmodel.lfmodel.net_l.2.bias f4 [16]
00000000: e2e6 0a3d bb9c a1bd cd75 3c3e 8e27 8bbe
00000010: 5660 cdbe e4e4 84bd 5d7a a33d 57e6 82be
00000020: 7f29 b9bd 220b 86be fe62 3e3e 13ac fe3d
00000030: e363 89be 6235 c7bd 949d 77be f181 bf3e
0.033911593 -0.07891222 0.18404312 -0.27178615 -0.4011256 -0.0648897 0.07982323 -0.2556636
-0.09041118 -0.2618037 0.1859245 0.12435164 -0.2683402 -0.09726979 -0.24181205 0.37403825

lfmodel.lfmodel.net_l.4.weight f4 [1, 16]
00000000: 01e9 1abf d52b 863f 192b f53b d101 763e
00000010: dcc5 41bf d81f 21bf 1849 19bf 6216 e8be
00000020: f016 65bf 967e 8cbf 6ac9 e1be f1e5 da3e
00000030: 9d2e 553f 42af 753e 7d75 ed3e a4a8 4ebe
-0.60511786 1.0482126 0.0074819443 0.2402413 -0.75692534 -0.62939215 -0.5987716 -0.45329577
-0.89488125 -1.0976131 -0.4409898 0.42753556 0.8327425 0.23992637 0.463787 -0.20181519

lfmodel.net_scale.layer_1.weight f4 [64, 3]
00000000: 26dc 36bd b49f cfbd 7d0f 88bd a623 debd
00000010: 7c3c 36bd d4f5 22be 7a00 053c c4f9 1c3b
00000020: a47b da3b b022 31be 736e 46bd bf22 293e
00000030: 65c1 163e 5b47 223d e0b0 45bd f9c0 103e
00000040: 3ff8 de3c e996 053f ca49 f9bb a991 afba
00000050: 6a77 ac3c 7c93 2dbe 4a88 4d3e 4f1b 853e
00000060: 406c abbd cae6 273d 756c f3bf e802 503f
00000070: cb1a 7fbe a854 84bd 9080 5cbd f7fc 3339
00000080: 585a f6bc 785f 4f3e ace4 59be a0c7 0cbf
00000090: c63d 9fbe 88a6 b43d 0e9d 3fc0 1ae9 4cbe
000000a0: e592 743e 18ff 5ac0 824c a0bd e243 cfbc
000000b0: 14ea f4bd d1b9 7b3d 3c2e c2be 79f6 83be
000000c0: aa4e 9a3b c989 d5bb 7210 093b 582e d3bc
000000d0: 84d8 35bc 1d9c 153b a3f6 30bf 9dd7 7f3e
000000e0: f74a d1bf 02fc e8bd e445 1abd b2c2 fb3e
000000f0: 7e2d 41bf bacf c93e 8d8c ad3f 0edc 03bd
00000100: 1ac8 60bc 2220 0f3c 5849 793e ca55 34bd
00000110: 0d2c 2c40 b1cc 8cbd 4d85 cebc 6f19 ca3c
00000120: 3282 64be 3323 1a3e 834c 0f40 9e42 373e
00000130: ae2f 363d c6dd 973d d001 c9bd 1e6f 8fbd
00000140: 748c 5ebb 658d 8f3d eb3a bd3c f2ca c33d
00000150: 6abc 0a3e 67fa 7bbd 7043 24c0 9e99 84bd
00000160: f6a9 67bc fdb6 f5bb 4e98 003e 62d9 103d
00000170: 7623 64be af29 923e 480a 8ebd 19ce ecbf
00000180: ce75 26bf 6125 9c3e df79 42bd 837d 0b3d
00000190: 9cc0 243c b981 f03c 6df6 82bc 3ac9 b7bd
000001a0: 44bd 8f3f 7710 f23d 0ea4 af3b a5d7 e4bc
000001b0: 2914 9b3d f1cf 5d3d 53c2 4741 c4a1 94bd
000001c0: 700a ff3d dd04 67c0 47a5 36bf 7860 b43e
000001d0: ea13 fcbd 4c10 ad3d 6d55 823c e83b 96bd
000001e0: f814 433e 1b3b 543d 1fd6 e1bb 9245 1c3f
000001f0: 7ff7 31be ee25 86bf 8487 843d f217 143c
00000200: 7778 953c d30e 783d a95c 69be a41a 20bf
00000210: 21f6 323f 12d7 40be 42ae 27bf 9208 d5be
00000220: 2f90 b93d e326 1d40 64b4 bebe a18f 443e
00000230: 53f7 2140 fa28 9e3d 8de9 54bd 9d8d 8c3d
00000240: 16ac 723e 5a0d 94bc 081b 3ec0 0fd4 1c3f
00000250: 0506 38be 44ae 33c0 905f 9ebe 6a56 733d
00000260: 9368 203c 2949 14be 65e1 2cbd 9bb6 603e
00000270: 4c64 75be 9095 b0bc 1f95 0e40 e541 dfbc
00000280: a570 8bbc fcaf 86bb 03f0 2cbe 2727 4dbd
00000290: 4ac5 b13c 3fe7 563e ce8e 233e 4f6b 013e
000002a0: adcc 923e 1469 b7bc 697a 183f 3d2a fe3c
000002b0: 2852 083c def5 c539 6259 d03c 98a3 46bd
000002c0: 5ac0 a33f 1188 fb3d a4ec f5bd 494b 22c0
000002d0: d2ad 4a3d 1fb4 513c decf 1e3b 11d4 88bd
000002e0: f378 78bc 44b6 26bd af1d 9cbe 0dbd 65bd
000002f0: 2445 23be 993a c93d 8d82 e93c d68d 2fbd
-0.044643544 -0.10137883 -0.06643579 -0.10846643 -0.044491276 -0.15914088 0.008117789 0.0023952583
0.006667571 -0.17298388 -0.048445176 0.16517161 0.14722212 0.03961883 -0.048264384 0.14136113
0.027217982 0.52183396 -0.0076076733 -0.001339485 0.021053035 -0.16950792 0.20071521 0.25997397
-0.083702564 0.040991582 -1.9017473 0.81254435 -0.24912564 -0.064614594 -0.053833544 0.00017165007
-0.030072376 0.20251262 -0.21278638 -0.54992104 -0.31101817 0.08820826 -2.9939609 -0.20010796
0.23884161 -3.4218197 -0.07827093 -0.025300924 -0.11958709 0.061456505 -0.379259 -0.2577398
0.0047090845 -0.0065166694 0.0020914343 -0.025778934 -0.011098985 0.0022828646 -0.6912634 0.24984594
-1.6351002 -0.11376192 -0.03766431 0.49171978 -0.7546004 0.39416295 1.3558518 -0.032192282
-0.013719583 0.008735688 0.24344385 -0.044027127 2.6901886 -0.06874979 -0.025210047 0.02467033
-0.2231529 0.1505249 2.239045 0.17896506 0.044479065 0.07415347 -0.09814799 -0.07003616
-0.0033958228 0.07009391 0.023099383 0.09560193 0.13548437 -0.0615181 -2.566616 -0.06474613
-0.014139643 -0.0074986205 0.125581 0.035363562 -0.22279152 0.28547427 -0.06935555 -1.8500396
-0.65023506 0.30497268 -0.047479507 0.034055244 0.010055687 0.029358732 -0.015986646 -0.08973928
1.1229634 0.11819547 0.005360133 -0.027934859 0.075722046 0.054153387 12.484942 -0.07257417
0.12453163 -3.6096718 -0.71345943 0.3522985 -0.12308486 0.08450374 0.015909875 -0.07335645
0.19050968 0.05181418 -0.0068919803 0.61043656 -0.17379569 -1.0480325 0.0647116 0.009038912
0.018245919 0.060561012 -0.22789253 -0.6254065 0.6990681 -0.18832043 -0.6550027 -0.416081
0.09060704 2.4554985 -0.37247002 0.19195415 2.5307205 0.077226594 -0.051980544 0.06862948
0.23698458 -0.018072773 -2.9703999 0.61261076 -0.17971046 -2.8075113 -0.30932283 0.059408583
0.009790557 -0.14481033 -0.04220714 0.21944658 -0.23964041 -0.021555692 2.2278516 -0.0272531
-0.017021487 -0.0041103344 -0.16888432 -0.050086167 0.02170052 0.20986651 0.15972444 0.12638591
0.2867178 -0.022388972 0.59561783 0.031026 0.008320369 0.00037757953 0.025433246 -0.04849586
1.2793076 0.12281812 -0.12008026 -2.535845 0.049482174 0.012799292 0.0024232785 -0.066810735
-0.015165555 -0.040701166 -0.30491397 -0.056088496 -0.15944344 0.0982563 0.028504634 -0.042859875

lfmodel.net_scale.layer_1.bias f4 [64]
00000000: 14b9 273f 47b8 ea3e 84b1 32bd 57f4 133f
00000010: 9b37 f2be 1cbf efbe a3aa 8b3c 8827 3ebf
00000020: 9cb7 833d 6363 9cbe c2c2 0d3e 68fb 003f
00000030: d1de b13e d2eb 2cbf d023 903e 65fd 9ebe
00000040: 97a9 3fbd 0eef 8e3d 86fe fb3d 8a82 bc3e
00000050: d313 36bf 7471 b03d 3919 d5be 74a9 623e
00000060: 5812 02bf 28e1 23bf 0675 003f 2b17 64be
00000070: 4ed5 543e 8115 813e 2390 d7be cc6d 8abd
00000080: 3c70 adbe 611c c2bd d8bf da3e efd7 9fbe
00000090: 5f6d 823e 677e 9abe b86c 05bf 5327 96be
000000a0: e619 2cbf e5d4 33be d3a4 2ebe 275a 27be
000000b0: 2305 a6be 7f62 383e b48d d2be f810 eb3d
000000c0: bbd4 4dbe 47f2 31be 2ab4 953e 33ea f43e
000000d0: 50ad dd3e 29a5 103e a9cc 1d3f 2bc3 763c
000000e0: 894e e3be b7b3 c4bd ae7a 0b3e e2e2 f83e
000000f0: 31a6 3bbe 6314 5d3e 88a1 41be d80e a9be
0.6551678 0.45843717 -0.043626323 0.5779471 -0.4730805 -0.46825492 0.01704914 -0.7427907
0.06431505 -0.30544576 0.13843825 0.50383615 0.34740308 -0.67547333 0.28152323 -0.310527
-0.046792593 0.0697919 0.12304406 0.36818343 -0.71124 0.086153895 -0.41620806 0.22134954
-0.5080924 -0.64015436 0.50178564 -0.22274463 0.20784494 0.2521172 -0.42102155 -0.06759223
-0.3387469 -0.09478069 0.4272449 -0.31219432 0.2547407 -0.30174562 -0.52119017 -0.29326877
-0.6722702 -0.17561682 -0.17055063 -0.16342984 -0.32425794 0.18006323 -0.41123736 0.11477846
-0.20100681 -0.17377578 0.29239017 0.4783493 0.4329629 0.14125504 0.6164041 0.01506118
-0.44395855 -0.096045904 0.13621017 0.48610598 -0.18325116 0.21589808 -0.18909276 -0.33019137

lfmodel.net_scale.layer_3.weight f4 [64, 64]
00000000: 3cca 3c3b 57aa 603c 5c0c 2cbc 99a9 2b3a
00000010: e8f0 9abc d33f 12bb 00ef 453c 29db 3a3c
00000020: 0644 55ba 588b 21bc 38f8 c6bb f900 bb3b
00000030: 2a08 bebd ce48 35bd 1e2d 343c 5c37 28be
00000040: 5e98 93bb 0cf6 ca3c f3c4 ff3c 2881 a53c
00000050: dd40 673b adbe 91b8 0fbe b0bc 204c 0a3c
00000060: d3f5 a53c 460a 813c cc15 e43a 68fb 0b3c
00000070: 6f64 2c3c d8b6 643c c919 993c daa3 a43c
00000080: b222 053b 52e0 853a 2a77 6e3c b2f3 2b3d
00000090: b2b8 0bbf 413b 9bbd 423a 5cbb 04fe cbbc
000000a0: 25b4 5dbc c7ff 52bc 4074 9e3c d4bd 1e3b
000000b0: 689c ba3b 3d90 60bd 8050 8e3d 7f74 46bb
000000c0: 607f 483d 9ca0 71be 7cab 6ebb 8f9e 553b
000000d0: 4d57 a03c c857 33bc f7c9 e8bc 32e9 8c3d
000000e0: b115 7db9 83b3 c5bc 5b63 983b 1b53 22bd
000000f0: 0312 b0bc 8e8b 9dba 876d 17be e3f9 c7bb
00000100: 8b18 9c3a c99a f5bb 9b2d 0f3b 0d37 a8bc
00000110: c6bb fb3b e30d d53b 9ee4 ab3c 3be1 133c
00000120: 418d ccbb 5512 77bc 2a55 c93b 0c3b 243e
00000130: a550 9e3d f41c dc3d 0811 cebb 23ca 153e
00000140: 5a5c 453c 907d 9c3c 38fc a0b7 dbac d83c
00000150: 7078 a43c f14a 8ebc d8da 103d 6f69 193b
00000160: d2ee 9e3c 3502 cb3b c2fc e4bb d772 793c
00000170: 7c5e 75bb b1e5 de3b 545b 3abc 96da 093b
00000180: 01b8 483c cfb5 babb fc9b cbbb 3612 42bd
00000190: 8983 163f ce8b 103d 106e ec3b c0e5 b23b
000001a0: df89 1e3c ad2d 3bbc 5993 7f3c b6f3 5a3e
000001b0: 18ca beba 56b9 083d 5707 afbd db7f 55bb
000001c0: 5f6d c13d bd90 333e 1191 833a 2f13 1a3c
000001d0: 3c34 ad3c 76f4 a8bc 10d4 25bc 23b6 7dbd
000001e0: bbac cbbb 117a 03bc 3c02 90bb 450b b13d
000001f0: 43cc 87bc 00e7 903b 0628 523d 1a1b 01bc
00000200: 567a 413c 000f 9b3b 7c23 283c f56d d63a
00000210: e3db 7b3b 1614 14bb acf6 a73c 0ca5 0b3c
00000220: 9bcd eb3c d034 53bc 79a2 d7bc 11b9 fe3c
00000230: 071b 8d3c b644 933d 9b71 aeba 3455 e73d
00000240: b0ff 023d 74ce 993a 9f9f 9a3c 7601 70bb
00000250: d30e 9b39 313b ba3b 9cb0 82bd 5ee5 173c
00000260: 88ee 74bd e217 afbc 4caf b13b c7c7 343b
00000270: c5f6 6a3d 4745 69bc 8c39 18bc 63de 2c3c
00000280: ae13 1bba bc4a 9dbc 4493 2f3b f85b 99bc
00000290: 1cc6 1b3f 02d8 36bc 7fa0 0f3c 57cf 1e3b
000002a0: 0244 21bb 2087 1d3b d7d9 85bc 771b f03d
000002b0: cd07 82bc b3cc 3a3d 8329 273b 0a32 9f3b
000002c0: 1ea5 a73d 5a4e 3e3e a8dd c33b a40e c4bb
000002d0: f07e 323c fa25 223c 7674 47bc 0115 1c3c
000002e0: e5f9 61bb b6d1 bf3b 3827 903b 9898 e2ba
000002f0: f909 143b c885 c1bb 4961 993d 83f1 23bd
00000300: 5232 b8bb 0e73 a2bc c899 cc3c eb95 e23c
00000310: e18f 08bc 9a79 e13c 43f3 7dbc 16b2 d83b
00000320: b3a2 a43b 063f 173a 6fbc 003a a4fb b93c
00000330: 28b7 363b 44f0 083e 573a 9bbc 0472 b83b
00000340: 923a 3f3c 5084 6f3c 5142 a5ba 86f8 e7bc
00000350: 1e3d c33b e77f ae3c a670 0fbc fe06 cebb
00000360: ed12 a2bd 791a 1f3d 803d f9ba ff3b d53c
00000370: 5697 843d f2e5 1d3d 83a2 d13b be0d 03bc
00000380: 1197 68bb 4c7b a73c 3512 efba a049 f83c
00000390: d5a8 223f c7b0 6a3d c2b4 26ba 7cf1 46bc
000003a0: 0c49 4e3c a285 fd3b 9861 043c 92e3 333e
000003b0: f500 273c cb47 c63b 8402 98bd 8b3c 89bb
000003c0: 5e5a 473d aa18 a73d 9e42 023b 7de5 14bc
000003d0: 1d24 493c 0926 23bc cb14 6b3b 32f4 04be
000003e0: d2df 0ebc 3418 52bc 4e24 84bb bed8 8b3c
000003f0: 0a93 8f3c 6bf0 9a3c 210b 2a3e aa32 52ba
0.0028807065 0.013712487 -0.010500994 0.00065484043 -0.018913701 -0.0022315874 0.012080908 0.011404791
-0.00081354415 -0.009859882 -0.0060720704 0.005706903 -0.09278901 -0.044258885 0.010997085 -0.16427368
-0.0045042476 0.024775527 0.031221842 0.020203188 0.0035286464 -6.949655e-05 -0.021575002 0.008441001
0.02025882 0.01575197 0.0017401516 0.008543827 0.010521992 0.013959609 0.018689053 0.020097662
0.002031487 0.0010213947 0.014554778 0.041980453 -0.545787 -0.07579661 -0.003360406 -0.024901398
-0.013531719 -0.012878365 0.019342542 0.0024222033 0.0056949146 -0.054825056 0.06948948 -0.003028184
0.0489496 -0.23596424 -0.003641813 0.003259573 0.019572878 -0.010946222 -0.028416617 0.06880416
-0.00024136041 -0.02413345 0.004650516 -0.039630037 -0.021492964 -0.001201974 -0.14787875 -0.006102787
0.001190917 -0.0074952585 0.0021847251 -0.020534063 0.0076822964 0.0065018996 0.020983037 0.009025867
-0.0062424247 -0.015080054 0.0061441856 0.1603815 0.077302255 0.1074771 -0.0062886514 0.1462789
0.012045944 0.019102842 -1.9190935e-05 0.026449611 0.02007696 -0.01736972 0.035364956 0.002340879
0.019400988 0.0061953315 -0.006988139 0.015225134 -0.003744035 0.0068022837 -0.011374313 0.0021034828
0.012250901 -0.005697943 -0.006213663 -0.04738065 0.58794457 0.03528958 0.007215269 0.0054595172
0.009676426 -0.011424464 0.015599095 0.21382031 -0.0014556078 0.033379875 -0.08546322 -0.0032577429
0.09444689 0.17535682 0.001003774 0.009403988 0.021143071 -0.02062438 -0.01012136 -0.061941277
-0.0062156594 -0.008024708 -0.0043947976 0.086447276 -0.016576892 0.0044220686 0.0513077 -0.007879997
0.011808952 0.0047320127 0.010262366 0.0016359674 0.0038430623 -0.002259498 0.020503365 0.008523237
0.028784564 -0.012891009 -0.02632259 0.031094106 0.017224802 0.0719084 -0.0013309004 0.11295548
0.031982124 0.0011734501 0.018874941 -0.0036621965 0.0002957495 0.0056833257 -0.06381342 0.009270994
-0.059797794 -0.021373693 0.0054225083 0.0027584897 0.057364244 -0.014237708 -0.009291064 0.010551068
-0.0005915713 -0.019200675 0.0026790658 -0.018720612 0.60849166 -0.011159899 0.008766293 0.002423247
-0.0024607186 0.002403684 -0.016339226 0.117239885 -0.01587286 0.045605373 0.002550692 0.00485826
0.081857905 0.18584576 0.005977351 -0.0059831906 0.010894522 0.00989675 -0.012173763 0.009526492
-0.0034481224 0.005853857 0.0043992065 -0.0017287908 0.0022588952 -0.0059058405 0.07489259 -0.040025245
-0.005621233 -0.019830253 0.024975672 0.027659377 -0.008335085 0.027523804 -0.015499893 0.0066130264
0.005024278 0.0005769584 0.00049108913 0.022703 0.0027880166 0.13372904 -0.018948717 0.005628826
0.011671679 0.014618948 -0.0012608265 -0.028316747 0.0059582135 0.021301223 -0.008754885 -0.0062874546
-0.07913766 0.038843606 -0.0019015521 0.026029585 0.064741775 0.03854937 0.0063975467 -0.007998882
-0.0035490433 0.020444535 -0.0018239679 0.030308545 0.6353887 0.057297494 -0.00063593325 -0.012142535
0.012590658 0.0077368775 0.008079909 0.1756728 0.010193099 0.006051039 -0.07422355 -0.0041881255
0.048670165 0.08159001 0.0019876133 -0.009087917 0.0122766765 -0.009957799 0.0035870548 -0.12983778
-0.008720355 -0.012823153 -0.004032648 0.017071124 0.017526168 0.018913468 0.16605808 -0.0008018414

lfmodel.net_scale.layer_3.bias f4 [64]
00000000: 7605 e13d db5d 08bd 39dd 76be efac 06be
00000010: 160f 5dbc 9f11 2a3c d350 9e3d aba8 2c3e
00000020: 9143 093e c6be 873d 382f b8bd 5f5a 98bd
00000030: 6746 64be d659 363d 5ccf b5bd f541 c93c
00000040: 8224 b13d a4df 143e 78f0 453e 42f2 62be
00000050: 0f64 523d 8c0b 0bbe d06b 47be 0f05 41bc
00000060: fa02 eb3b 7a95 33be 0890 57be 9c41 013e
00000070: 8afe 98bd 6bd5 a73d ee2c c63e 91f8 33be
00000080: 6490 debd 9602 0fbe 308b 0b3e f274 643e
00000090: 48a8 2f3d 9aba c5bd 5d9d 083d 07af 66bd
000000a0: fb2d 20be 16e6 e93b e867 00bd 8ea5 17be
000000b0: 8ae1 eebd 0d38 2b3e c898 4a3e 0a52 163d
000000c0: 07e1 aa3c cf24 42be 873a 85bd 22a6 2d3e
000000d0: 6786 2bbe e49f f73d 6d63 19be b41a 35bd
000000e0: 01a8 cb3d 7053 42be 5f9f f03d 1a1b 8fbd
000000f0: d1ca a3bb b58b 09be daaf 3abd 8f66 08be
0.1098737 -0.033292633 -0.24107827 -0.13151906 -0.013492366 0.010380178 0.0773026 0.16861217
0.13404681 0.06628184 -0.08993381 -0.07439112 -0.22292481 0.044519268 -0.08877441 0.024567584
0.086495414 0.14538437 0.19330013 -0.22162727 0.051364955 -0.13578624 -0.19474721 -0.011780991
0.0071719857 -0.1753749 -0.21051037 0.12622684 -0.074704245 0.08195003 0.38706154 -0.1757529
-0.10867384 -0.1396583 0.13627315 0.22310236 0.042885095 -0.09654732 0.0333532 -0.056319263
-0.1564254 0.007138024 -0.031349093 -0.14809248 -0.11664112 0.167206 0.19784844 0.036699332
0.020859255 -0.18959354 -0.06505304 0.16957906 -0.16750489 0.120910436 -0.14979334 -0.04421492
0.099441536 -0.18977141 0.117491476 -0.06987591 -0.004998543 -0.134322 -0.04557786 -0.13320373

lfmodel.net_scale.layer_6.weight f4 [1, 64]
00000000: bee8 48bd 7e9a 583d f087 a03d c2b0 8c3d
00000010: fb60 a5bc 507e 313c ecfe 093c 799d 5abd
00000020: 13dc b4bc 32d5 78bc e535 c23d 2401 ab3c
00000030: cb3d 883d 8a9b 27bc 684e 5b3c 7dda 56bc
00000040: 692e fdba d3e4 43bc 4aa1 85bc 9303 843c
00000050: 1965 99bd aab8 b93c abd7 e63b 1643 62bc
00000060: c49e 8c3c 75cc 523d 891e 9b3c b017 adbc
00000070: fab2 3a3d d96c 49bc bddd 3bbb 1383 803d
00000080: a181 953d 1066 9c3d 2821 a4bc d702 70bd
00000090: c86a 72bc ca71 023d cbf9 debb 3bd8 373d
000000a0: 1810 9d3d ff14 9c3d 7688 8f3d 00d4 113d
000000b0: 10ad a43c eeb5 e4bc adc4 b6bd d545 fabb
000000c0: d7a2 1cbc 95bc a33c 2f37 fe3c 246e dabc
000000d0: 28f7 923d acac fdbb f095 2a3c 3cd3 473d
000000e0: 90e3 07bd 7e41 2f3d eb95 25bd f295 983c
000000f0: f8ca b6bb ba63 8e3d d4ff 2f3d 48e5 713c
-0.049050085 0.05288171 0.07838428 0.068696514 -0.020187845 0.010833338 0.0084225945 -0.053372834
-0.022077596 -0.0151875485 0.09482936 0.020874567 0.06652411 -0.0102299545 0.013385393 -0.013113615
-0.00193162 -0.011956411 -0.01631226 0.016114986 -0.07489986 0.022671062 0.0070447526 -0.01380994
0.01716555 0.051464517 0.018935459 -0.02112946 0.04558084 -0.012294018 -0.0028666102 0.062750004
0.073001154 0.076366544 -0.020035341 -0.05859646 -0.014795966 0.0318468 -0.00680468 0.044883948
0.07669085 0.07621192 0.0700845 0.03560257 0.020102054 -0.027918782 -0.08924232 -0.007637719
-0.009560308 0.019987384 0.031032173 -0.026663847 0.071760476 -0.0077415314 0.010411724 0.048785433
-0.033176005 0.042787068 -0.040426176 0.018626187 -0.005578395 0.06952615 0.042968586 0.014764138

net_scale.layer_1.weight f4 [64, 3]
00000000: 93cd 21bf 8983 5a3e 1a3d d4bd b345 33be
00000010: 6280 af3c 04ae e7bf 0aea babe 6a52 5a3e
00000020: 4603 8b40 8de2 8f3e 319b 66be 6b58 b03e
00000030: df6d 1fbf c625 503d a097 f3bf 8dc4 313f
00000040: 6a15 02bf 7e89 1c3d 0dbd 55bf ee54 80be
00000050: dc8d 8c3f 77cb 5abf 8c6f c03e 0339 6b3e
00000060: 121d 59bf 3cc0 d03d 085f 713e 4426 3e3f
00000070: e36f 80be 3a1b adbe 2c91 bf3e 11b8 22be
00000080: 383e a03f 52d9 25be 8ec1 dc3e cc98 e1c0
00000090: 26f4 9cbc d168 8fbc a5c7 e03f 7396 113f
000000a0: 930f d9be 7a0c 2b3e fe49 35bf b1f5 883e
000000b0: 2f00 643e 47b8 003f ccdf 14bf eb82 593f
000000c0: ca75 06bf ff85 063f 4d0c 8fbf 1a51 f1be
000000d0: cc49 013f c7ef 4abf 0b5e a53e 4485 09bf
000000e0: 1482 4240 9d93 233d 30a6 9ebd 3733 903f
000000f0: caaf 8ebf 369d d33e 9b14 e641 bf91 04bf
00000100: e2a6 cf3d ee94 d4bd 0f13 183e 0655 8dbe
00000110: 4a00 3f41 7d3c 23bf f50e 473e 7062 763e
00000120: 1f25 b8bc bb87 de3d 9718 b9c0 ddcb ff3c
00000130: 8d25 c23c edc8 2ebf 0764 353f d0e9 1ebf
00000140: ac11 d73e 7f05 053f bf97 723e 678c c0be
00000150: 3cbf 4cbf d3cc 4e3e 8c57 b13f 40bc 063c
00000160: cf8c c63b 5d57 603f e149 3c3f eb56 fbbd
00000170: 49dc 323e 628d ad3d eb85 c13c c9ea 0d40
00000180: 922b e1be c2f5 013f 5ff1 cabf 28ea 203f
00000190: 6466 f2be 42d2 313d adfe e0be d300 253f
000001a0: f580 b3bf 8d7c e83e 09c8 15bf a9f7 ac3f
000001b0: 56bf 8a3c f4da d73b 433a e33d dcef 033f
000001c0: 9aca 86be bef8 993f ef2c 713f eecd 9abe
000001d0: 8cb2 57c1 c55a 11bf 3dbf 67be 0dea 683f
000001e0: c813 d4be e9f4 fc3e c221 50bf 9a81 edbe
000001f0: cd50 ee3e ea89 fabe e687 05be 3f9f 42bd
00000200: 2fb3 9a3e 24b2 0bbf 012b 043f 956f 22bf
00000210: 2134 fdbe 5e80 003f de45 95bf 13f3 30bf
00000220: c5b4 fc3e fe42 93be 7d85 28bf 402d 8abe
00000230: 416f 3440 38b4 f33e d594 0abf bad2 873f
00000240: 2467 ba3e e77d f73d 2b8a 3bbf 0d20 fa3e
00000250: 7910 1ebf 2b33 703f 048d 9f3e 9d37 17bf
00000260: 9c38 0040 e759 b03e 6f80 16bf e7fc c43f
00000270: ef3c 043f c4a1 09bf c40f 063f ba8c 813a
00000280: c28d 273c 96f9 b3bf d4e3 563e 7ab5 a63d
00000290: 6308 b7be a2bc 53bd 7084 13bd 0112 603d
000002a0: b5a8 dc3e e551 29bf 6f99 b93f bbbd 703f
000002b0: e236 5c3e 7026 8ebf a7a8 52be d3b3 ab3d
000002c0: 2611 2b3e dd47 0a3f 3a36 6abc a033 063f
000002d0: 024b 1e3f 7f69 e5be d8e6 763e 26c0 a83c
000002e0: e14a ab3d 9604 14be 1262 0e3f 13c4 c4be
000002f0: 9e7d b83e b23c d5be 15f9 f43e c00b 8ebf
-0.63204306 0.21339239 -0.10363217 -0.17507057 0.021423522 -1.809998 -0.36506683 0.21320501
4.3441496 0.28102532 -0.22520138 0.34442458 -0.62277025 0.050817274 -1.9030647 0.6944054
-0.50813925 0.03821706 -0.83491594 -0.25064796 1.0980792 -0.8546671 0.37585104 0.22970967
-0.8480998 0.10192916 0.23571408 0.7427714 -0.25085363 -0.33809835 0.37415445 -0.15890528
1.2518988 -0.16196182 0.4311642 -7.049902 -0.019159388 -0.017506035 1.7560927 0.5687019
-0.42394695 0.16703978 -0.7081603 0.26749948 0.22265695 0.50281185 -0.58153987 0.8496539
-0.5252348 0.5254821 -1.1175629 -0.47132188 0.5050323 -0.7927212 0.32298312 -0.5371897
3.0391893 0.039935697 -0.077465415 1.126563 -1.1147397 0.4133088 28.760061 -0.5178489
0.10139252 -0.103799686 0.1485102 -0.2760393 11.937571 -0.6376417 0.194393 0.24060988
-0.022478638 0.10865732 -5.7842517 0.03122514 0.023699546 -0.6827534 0.70855755 -0.6207552
0.4200567 0.5196151 0.23690699 -0.37607118 -0.799793 0.20195322 1.3854842 0.008223593
0.006059266 0.87633306 0.7355023 -0.12272438 0.17466845 0.08474232 0.023623427 2.2174551
-0.43978554 0.5076562 -1.5854911 0.62857294 -0.47343743 0.043413408 -0.43944302 0.6445438
-1.402373 0.45407525 -0.58508354 1.351308 0.01693694 0.0065873805 0.11095097 0.5153787
-0.26326448 1.2029035 0.9420919 -0.30235237 -13.481091 -0.5677913 -0.22631545 0.90982133
-0.41421342 0.49405602 -0.8130151 -0.4638794 0.4654602 -0.48933345 -0.13040122 -0.04751515
0.3021483 -0.54568696 0.5162812 -0.6345151 -0.49453834 0.5019587 -1.1661947 -0.691209
0.49356666 -0.28762048 -0.65828687 -0.26987648 2.8192904 0.47598433 -0.5413335 1.0611184
0.36406815 0.12084561 -0.732577 0.48852578 -0.61743885 0.93828076 0.31162274 -0.59069234
2.0034552 0.3444359 -0.58789724 1.538968 0.5165548 -0.5376246 0.52367806 0.0009883859
0.010226669 -1.4060543 0.20985347 0.08140083 -0.35748586 -0.051693566 -0.036014974 0.05470467
0.43097463 -0.66140586 1.4499949 0.94039506 0.21505311 -1.110548 -0.20572148 0.08383908
0.1670576 0.54015905 -0.014295155 0.52422523 0.618332 -0.4480705 0.24111497 0.020599436
0.083638914 -0.14454874 0.55618393 -0.38430843 0.36033338 -0.4164787 0.47846285 -1.1097336

net_scale.layer_1.bias f4 [64]
00000000: e755 85be 747d 243d 14dc f7bd 5046 073f
00000010: b0f6 c6bd f250 5c3e e804 723f b4b0 97bc
00000020: 07bd 75be 632e d53e fef1 7c3e 4a9c 52bf
00000030: 9058 e03d 83d9 a0be b51e 16bf b929 113f
00000040: 894a 75be b1c4 d73d 5038 153f 3b98 d83e
00000050: 3602 2a3f b992 5ebe acae 8c3e 13d2 8dbd
00000060: 2a10 bbbd 21f0 24be ba60 403f c974 31bf
00000070: d212 6fbd 7b65 7fbc ac59 07bf e4fd 82be
00000080: cfa7 3cbe d7ec f13e 4c6d 14bf 2757 0e3e
00000090: d589 cebd c10d 1b3e 914a 46be 7e92 283f
000000a0: 6967 273e 10a9 08be 5d86 913e b38d 13be
000000b0: 480f 92be 8386 61be f295 aa3f 17e1 9c3d
000000c0: c326 9fbe 6ce6 243f 416a c1bd 321f a43e
000000d0: 7bf0 2a3e 32bd 5dbd c5b8 0fbf b6a7 853e
000000e0: 02d3 233f 84ee 1abf 141b 90be cfbc d8be
000000f0: 184a 513e 6bb2 f1be 011b 56be 61b8 203d
-0.260421 0.040158704 -0.121025234 0.52841663 -0.09715021 0.21515253 0.94538736 -0.018516876
-0.2399789 0.41636953 0.24701688 -0.8226973 0.10954392 -0.31415948 -0.58640605 0.5670429
-0.23954214 0.10535563 0.5828905 0.42303643 0.66409624 -0.21735658 0.27477014 -0.06924834
-0.091339424 -0.16107227 0.75147593 -0.69318825 -0.058367558 -0.01558816 -0.52871203 -0.25584328
-0.18423389 0.47251007 -0.57979274 0.13900433 -0.10084883 0.15141965 -0.19364382 0.6584853
0.16348042 -0.13345742 0.28422824 -0.14409523 -0.28527284 -0.22023968 1.332701 0.0766012
-0.3108426 0.64414096 -0.094440944 0.3205505 0.16693299 -0.05413551 -0.5614131 0.26104516
0.6399385 -0.60520196 -0.2814566 -0.4233155 0.20438421 -0.47206435 -0.20908739 0.039238337

net_scale.layer_3.weight f4 [64, 64]
00000000: d4cf 153e a0f1 093e da3c 013e 0788 32bd
00000010: e629 3cbe 0006 093d b5f4 31be 061a 84bd
00000020: 5d33 cebc 2c3a 96bd 3213 33bd 10cd 14bd
00000030: 7d83 843c c060 2c3e c645 1a3e 8ba7 15bd
00000040: cd6a 08bc 2bef 913c e2b6 dd3d 0bb4 833d
00000050: b674 123f 7fe7 51bd 3497 103e caee 95ba
00000060: 2d29 3f3e b95e 373b 3789 fabb 8218 1e3c
00000070: dba2 d2bc 045d aabc 27b7 7e3d 0f51 073d
00000080: ce3e 653d ca6b 70bd ee2e 21bc d539 2b3e
00000090: 57ec 933b a3c4 60bd b069 573e b6b9 22be
000000a0: 25f7 31be 4738 e8bd e7e9 fe3d 3ebd 11bd
000000b0: c241 e7bd f4e1 443c 60d0 97be cfd6 983b
000000c0: fa3c b03d e6bb 5e3d 3a31 af3d a52b cb3d
000000d0: afd2 923d 1c64 c9bb 0fc0 23bf 7193 053d
000000e0: 7c2b da3c 9fc9 ad3d d85b 3bbe 9f38 86bd
000000f0: ed9a 9e3d 45bc 9ebe 8e94 4dbd a278 093c
00000100: f78d a63d db92 acbd 9083 723b d9b3 b2bd
00000110: 2d52 4dbe 2c20 8d3d 2e1a 5ebe b24c fb3d
00000120: 6818 5ebe 9622 8bbd 448d 8bbd 1740 8fbd
00000130: 4aa6 acbd 470b 34bd a7f4 b23d e1ec f9bb
00000140: 6304 95bd e9be 2bbe d006 813d 7a95 903c
00000150: d586 173f c3f1 37bc 43be 073d a587 163d
00000160: f5b4 b03d 6b40 fbbc 4c35 9abc e270 883d
00000170: bbba 0e3c 4a79 99bb dc9e 993c c751 3e3c
00000180: cd0c 73bb 8d23 88bd 6daa c3bd fda3 093e
00000190: d979 603b 3a04 c93a e46c 0a3e d0d9 4e3d
000001a0: 2183 0f3d a918 02be 2b44 9c3d 3c6e 22be
000001b0: 6339 883c ce41 a5bd 917f 0fbe c3fa b63d
000001c0: f54c 863d 3b20 ca3c 679d 853b 6ccf 923b
000001d0: 0115 473d 9bcb 273d a9e6 babe 6bb5 863d
000001e0: 0a81 b83d b4d1 fb3d dd77 08be 761b 8e3d
000001f0: e4b7 c7bd 7fae 3abe 713b a03d 01a3 9ebd
00000200: 0c51 293d fd75 8f3d 172d ecbd 3c6e 2d3d
00000210: 2f21 243e 4d1f 43bd adea 913e 9cbd f13c
00000220: 8668 7f3e e44a 3d3e 65cc 993d acc4 d13c
00000230: 6f42 96bc d5bb 873d 8637 75be 962c ddbd
00000240: 2579 ad3c db0b 013e ce3b c3bd 20e6 92bd
00000250: e2a8 bdbe 8824 ac3d 6e9c 273c edeb 26be
00000260: cb79 ccbc 0981 8cbc 6715 a7bd d3c7 47be
00000270: 80d0 90bd 9379 32bd 2371 bfbd 93b8 883d
00000280: 7124 69bd 5c34 a33d a47f e03d d637 17be
00000290: f5d1 8fbd a718 183d 5daa 7abd 7369 6c3d
000002a0: 68d0 f63d 4e8c b83d 216c 34be 610b 7ebd
000002b0: de79 28bd d545 4b3d c70b 923e 4016 22be
000002c0: 031c aa3d 4cdd c0bd 54d7 763d d4a7 31be
000002d0: bac7 01be c8e0 15bd 10c9 ec3e e3b0 583d
000002e0: 8aa2 4b3d aa6f 2fbe 4e98 313e 6cfe 453c
000002f0: 7512 a1bd 2fd9 c63e a72d 01bc 3273 27bc
00000300: 0a9b 23be 2021 683d e498 633d f056 6bbc
00000310: c72e 95bb a7af a3bd c634 6a3e 3ceb ec3d
00000320: 40a6 f43d 9b75 c33d 1eea 76bd 416c 0e3e
00000330: 35d8 e3bc 1dac fabd 8d4c 6bbe ec05 0c3b
00000340: f7b0 1a3d 7762 eebc 96a4 0d3c 8bc1 80bd
00000350: 20fe 12bf d928 823d 354a c5bd 0b53 d1bd
00000360: c43d efbd 521d 0d3c 63d5 91bc 1361 2dbe
00000370: 13d2 20bd f1af 8ebb 369b de3d 4975 8ebd
00000380: 05b4 273b 553b 16be 9c2d c5bc bc6a cdbd
00000390: bb4c 03bb 8df2 993d 173f 99be 6e34 bebc
000003a0: 64c3 c33d ce4f b5bd 3706 7abb 5a43 923d
000003b0: a8bc a2bd 661f 083e 0a6d b33e 421c 22be
000003c0: f6b4 d9bd 9bbb 17be a779 063d 3907 b23d
000003d0: 4ed8 cabc ccb8 183c 40fe 1e3f a6b7 0e3b
000003e0: 963c 91bd 66b9 99bd 20e0 2c3e cce1 a5bd
000003f0: 7966 883d 7f2d d13e 10dc 07be 2ada abbc
0.14630061 0.13471079 0.1262087 -0.043586757 -0.18375358 0.033452988 -0.17378505 -0.06450276
-0.025170976 -0.07335314 -0.043719478 -0.036328375 0.01617598 0.16833782 0.15065679 -0.036536735
-0.008326245 0.01781424 0.10825898 0.06430825 0.57209337 -0.051246163 0.1412018 -0.0011438963
0.18668051 0.0027980043 -0.007645752 0.009649398 -0.025712421 -0.020796306 0.062186386 0.033036288
0.0559681 -0.058696546 -0.009837849 0.1672128 0.004514258 -0.054875027 0.2103641 -0.15891156
-0.17379434 -0.11338859 0.12446957 -0.035580866 -0.11291839 0.012016762 -0.29651165 0.004664279
0.0860538 0.054378413 0.08554311 0.09920434 0.07169091 -0.006145967 -0.63964933 0.032611314
0.026632063 0.08485722 -0.18296754 -0.06553768 0.077443935 -0.31003013 -0.0501905 0.0083905775
0.081325464 -0.08426448 0.0037004687 -0.087257095 -0.20050879 0.06890902 -0.21689674 0.12270488
-0.21688998 -0.06793706 -0.06814054 -0.06994646 -0.084301546 -0.043956067 0.0873807 -0.007627115
-0.07276227 -0.16772045 0.063001275 0.017649401 0.5919011 -0.011227074 0.033140432 0.036750454
0.08628265 -0.030670365 -0.018824242 0.06662156 0.008711512 -0.0046836482 0.018752508 0.011616177
-0.0037086487 -0.06647406 -0.095539905 0.13441463 0.0034252314 0.0015336343 0.13518101 0.05050069
0.035037164 -0.1270472 0.076301895 -0.15862364 0.016628927 -0.08069192 -0.14013506 0.08934548
0.06557647 0.024673572 0.0040776017 0.004480293 0.048604015 0.040965658 -0.36504105 0.065775715
0.09008987 0.12295857 -0.13326974 0.069388315 -0.09751871 -0.18230627 0.078238375 -0.07745934
0.041337058 0.07004926 -0.11532038 0.042341456 0.16028284 -0.047637273 0.28499356 0.029509358
0.24942216 0.184856 0.07509688 0.025606476 -0.018342225 0.06627623 -0.23946962 -0.1079952
0.02117593 0.12602179 -0.09532891 -0.07172799 -0.3704291 0.08405405 0.010230167 -0.16300936
-0.02496042 -0.017151373 -0.08158379 -0.1950982 -0.07071018 -0.043572973 -0.09347751 0.0667583
-0.05691952 0.07968971 0.109618455 -0.14767393 -0.07022468 0.037132885 -0.061197627 0.05771775
0.12051469 0.09011136 -0.17619373 -0.06202257 -0.041131847 0.049627144 0.2852461 -0.158288
0.08306124 -0.09417209 0.060263947 -0.17349178 -0.12673846 -0.03659132 0.4624715 0.052903067
0.049715556 -0.1713244 0.17343256 0.012084585 -0.078648485 0.38837573 -0.0078844195 -0.010220336
-0.15977111 0.056672215 0.05556573 -0.014363989 -0.0045526954 -0.079924874 0.22871694 0.11568305
0.11945772 0.09543916 -0.060281865 0.13908483 -0.027813056 -0.12239859 -0.2297842 0.0021365834
0.037766423 -0.029099686 0.008645197 -0.062869154 -0.57419014 0.06355447 -0.096332945 -0.10220917
-0.11681703 0.008612948 -0.017801946 -0.16931562 -0.039262842 -0.00435447 0.10869448 -0.06955964
0.0025589478 -0.14671071 -0.0240696 -0.100301236 -0.0020034749 0.07516966 -0.29930946 -0.02321836
0.09558752 -0.08853112 -0.0038150677 0.071417525 -0.079461396 0.13293228 0.35044128 -0.15831092
-0.10630219 -0.1481766 0.03283086 0.08692784 -0.024761345 0.009321403 0.62106705 0.0021776943
-0.07091634 -0.07506065 0.16882372 -0.08099708 0.0666017 0.40855023 -0.13267541 -0.020978052

net_scale.layer_3.bias f4 [64]
00000000: eb5e bc3c 309c afbd 2dcc cc3d 07c3 0f3e
00000010: 8797 eebd a402 8a3c 0d42 0f3d 4b5c 783d
00000020: 0bc0 47bd 7c12 d7bd e833 343d 54d7 c1bd
00000030: a59a 143b cb08 163e b381 1dbd b09b 0d3e
00000040: 227e 983d e29f 53bc cfab 5f3c 3cee c938
00000050: d341 373d dc15 0bbe 67c5 13be 56fe a43d
00000060: 9a43 38bc 6fc0 053e bd3c 8a3c 36c4 a33c
00000070: d756 ab3d b9b7 da3d 0ec3 8fbd e468 83bd
00000080: 94a5 afbc 92c9 013e 0b38 023e 2b93 d23d
00000090: 69cf e33d 7ee6 1e3e f8d5 0e3e fb51 4cbd
000000a0: a2af e0bd ff74 77bd 108a 4c3c d962 65bd
000000b0: 05fc 3e3e d2ad 44bd 4dca ec3d e100 05be
000000c0: 4c6f 3a3a fe5d e2bd 8f16 6a3b a8b6 37bd
000000d0: e173 c63d 9ae3 6d3b 8cb8 d93c b7a4 1fbe
000000e0: a404 9d3d 97e3 263e 5286 cebd bf1c f73d
000000f0: 9e25 303c 36a5 403d 75c9 edbb f13b a53d
0.02299448 -0.08574712 0.09999881 0.14039241 -0.11649995 0.016846962 0.0349751 0.060634892
-0.04876713 -0.105015725 0.043994814 -0.09464899 0.0022675183 0.14651792 -0.03845377 0.13828921
0.07445933 -0.012916537 0.013651802 9.6288015e-05 0.04474051 -0.13582557 -0.14430772 0.08056323
-0.011246586 0.13061689 0.016874665 0.019991022 0.08366173 0.106795736 -0.070196256 -0.06416491
-0.021441258 0.12674549 0.12716691 0.10281976 0.11123545 0.15517613 0.1394881 -0.04988287
-0.10970999 -0.06041431 0.012484089 -0.05600247 0.18650825 -0.04801733 0.11562023 -0.12988617
0.00071119214 -0.11053084 0.0035719012 -0.04485193 0.09690071 0.0036298991 0.026577257 -0.15590177
0.07666901 0.16297756 -0.10084213 0.1206603 0.010751156 0.047032557 -0.0072566816 0.080680735

net_scale.layer_6.weight f4 [1, 64]
00000000: 7ef4 243e 1c70 5d3d 04ef e8bc ce8d 4bbe
00000010: 9652 6a3d ae75 1b3d 906c 113e 26cd 203e
00000020: 2554 823d dca3 3d3c 629f dfbd de40 243d
00000030: 9a78 b73d b24c 04be 72a2 1bbd 121e f3bd
00000040: 3c35 2cbd a119 b6bc 818d 153e 4da4 10bd
00000050: be54 bcbd e8a7 973c f40e 0c3e a67a 2dbd
00000060: 8e04 8d3d 0089 b8bd a9a5 b43d de46 003e
00000070: b02e c33d d426 f3bd a46e d5bd 3db6 483e
00000080: 4767 683d 70d2 11be c5ba 07bc 4ab3 06bd
00000090: 466b 6cbd 97e8 7cbd 95e6 2ebd 6d42 2a3d
000000a0: c75d 863d 92bb 45bc 2cf1 ebbd 4d71 a7bc
000000b0: 55df cbbc 75eb d63c e880 2dbd c51a 253d
000000c0: 951f 06be 9efb ea3d 6660 153d 9ffc b2bd
000000d0: 0368 c0bd cdaa 9ebd 02f6 e13d b1e1 513d
000000e0: 6248 b2bc f4c6 66bd 0122 723e 7eea 1dbd
000000f0: b38a 173d 293a e7bd d203 9ebd 7b5a ccbd
0.16108891 0.054061994 -0.028434284 -0.19878313 0.057207666 0.037954025 0.1420157 0.15703258
0.063637055 0.011574712 -0.10919072 0.040100925 0.0895855 -0.12919882 -0.037996717 -0.1187097
-0.042042956 -0.022229018 0.1460476 -0.03531294 -0.09195851 0.018512681 0.13677579 -0.042353295
0.06885634 -0.09010506 0.0882066 0.12527034 0.09530389 -0.1187264 -0.10421494 0.19600768
0.056739118 -0.14240432 -0.008284275 -0.032885827 -0.05771949 -0.061745252 -0.04270037 0.041567255
0.06560855 -0.012068646 -0.11520609 -0.020439768 -0.024886766 0.026235322 -0.042359263 0.040308733
-0.13097985 0.114737734 0.036468886 -0.0873959 -0.09394839 -0.077474214 0.110332504 0.051240627
-0.02176303 -0.05634208 0.23645784 -0.038553707 0.03699751 -0.1129039 -0.077155724 -0.09978195
