lfmodel-cowden.pt (torch, 7630 bytes, 5 tensors)

net_l.0.weight f4 [32, 3]
000000 d5 71 3f bd dd 3d ee be fe 27 2b be d2 6d 33 bd
       -0.046739418 -0.46531573 -0.16714475 -0.043805905
000010 e5 2d c7 3e 4e fc 6c bd 28 dc c4 be 4d 34 ed 3d
       0.38902202 -0.057857804 -0.38449216 0.11582241
000020 5e 8c 0f 41 e3 4a cf be 72 93 96 3d 6c ef 3e bf
       8.971769 -0.40486822 0.07352342 -0.7458408
000030 5a 3a 50 bf c8 95 42 bc cb 96 51 3e 82 db a9 be
       -0.8133904 -0.011876531 0.20467679 -0.33175284
000040 63 74 4a 3e a7 53 ac bf f7 e4 95 be 6f 78 5d 3d
       0.1977096 -1.3463029 -0.2927625 0.054069933
000050 b8 12 04 c0 b4 85 b5 be 5f cd 20 3d 17 88 82 c0
       -2.0636425 -0.3545357 0.039258357 -4.0791125
000060 ed aa c7 be 97 7a 47 3e d1 78 5d 41 36 7d 02 3f
       -0.38997594 0.19480358 13.841996 0.50972307
000070 73 f1 55 bc 43 4c 6f be 8d fa 1d bf d3 71 9c bc
       -0.013058054 -0.23368935 -0.61710435 -0.019097244
000080 38 24 d9 3e 3a 47 5c be 56 97 25 3f 2a bd 05 3f
       0.42410445 -0.21511546 0.64684045 0.52241766
000090 1d 32 02 3f 55 c7 e5 bc a8 14 9d 3f 57 04 8f bd
       0.50857717 -0.02804915 1.2271929 -0.0698325
0000a0 0d 23 2c 3c 08 70 6e 40 a8 5c 35 bf 71 7b 8c 3e
       0.010506404 3.7255878 -0.7084451 0.27437928
0000b0 81 99 fb 40 d3 79 a2 be 0b ef 75 bd e3 3d 06 3e
       7.8624883 -0.3173357 -0.060042422 0.13109545
0000c0 8a e4 9b be cc 7f d7 bd fd 81 87 bd 3f 27 0a bf
       -0.304478 -0.10522422 -0.0661659 -0.53966135
0000d0 9f fc 40 bd 03 ef 7b be 84 d3 60 3d e8 ac 20 be
       -0.04711592 -0.24602894 0.054889217 -0.15690958
0000e0 4f 0e 15 c0 43 51 09 bf 3d bf 85 3c b5 b2 87 3e
       -2.3289983 -0.5363962 0.016326541 0.2650353
0000f0 39 1e 44 be 81 13 60 bd f5 bd 02 be b8 28 bf 3e
       -0.19152154 -0.0547061 -0.12767775 0.37335753
000100 aa e1 e0 bd 0d ef db c0 d1 3e 03 3f 31 56 bb be
       -0.10980542 -6.872931 0.51267725 -0.36589196
000110 1f fa 14 3e 95 9d fe 3d 1e 22 42 3d ed 81 07 c0
       0.14548539 0.124324 0.047395818 -2.117305
000120 da 29 32 3f 32 67 a2 be 66 aa 29 41 04 32 37 3f
       0.6959511 -0.31719357 10.604101 0.7156069
000130 90 65 ea bd b8 0e b3 3e a3 91 22 bf 25 d8 2f 3d
       -0.11445153 0.34972167 -0.63503474 0.04293074
000140 3a ab ca 3e 50 cd d8 3e 9b 6a 46 3d c1 1a e0 bd
       0.3958376 0.4234414 0.04844151 -0.10942603
000150 3b 34 93 bb 9a 21 59 3d 1d fe 7e c1 c5 70 51 3d
       -0.0044923103 0.05301056 -15.937039 0.051132936
000160 b6 45 03 3f 32 87 22 3f 0a b3 0b 3e da da 24 3e
       0.51278245 0.6348754 0.13642517 0.1609911
000170 96 78 9a bf 9d 15 43 3e 45 bc 0f bd 4d b4 1c 40
       -1.206805 0.19051214 -0.035091657 2.4485047

net_l.0.bias f4 [32]
000000 ea a8 f6 bd 08 2e b9 bf bf 4f a2 3d 0e de 5d 3e
       -0.120439366 -1.4467173 0.079253666 0.21666738
000010 35 aa ef 3e 4b 05 61 bf 31 f7 8f 3e 50 35 6b 3e
       0.46809545 -0.878987 0.2811828 0.22969556
000020 e8 e9 89 be 6f 41 d0 3d aa cc ab 3e 7e db 42 3f
       -0.2693627 0.101687305 0.33554584 0.7611617
000030 4e f8 51 bf 07 ac 52 3b 96 28 a5 3d b6 f4 37 3f
       -0.8201951 0.0032145993 0.08064382 0.71857774
000040 4c 56 43 3f a6 ef 45 3f 3f c3 51 3f 99 a5 7e bc
       0.76303554 0.773188 0.81938547 -0.015542411
000050 bc 3a 16 3f 82 6b 1c be df 01 4d 3f 68 fa b3 be
       0.5868337 -0.15275386 0.8008098 -0.35151982
000060 aa c0 84 3e 26 01 8a be 2b d9 1a be cc 38 12 bf
       0.2592824 -0.26954 -0.15121906 -0.57117915
000070 16 67 70 be b1 b4 ee 3e 71 fe 74 bf 77 c9 49 be
       -0.23476824 0.46622232 -0.95700747 -0.19705759

net_l.2.weight f4 [32, 32]
000000 e4 31 dc 3b a2 23 50 3e c8 59 1e 40 29 16 a2 bf
       0.0067198146 0.20326093 2.4742298 -1.2663013
000010 f9 46 06 3e 12 be 46 bf 66 38 ee bf 9f e8 34 c0
       0.13113011 -0.77633774 -1.8610961 -2.826698
000020 dd bc 27 40 bb dc c9 3c 54 1d 84 3e 4a c0 99 3e
       2.6209023 0.024641385 0.25803626 0.30029517
000030 c8 0e b1 3f 7a 22 15 40 13 bf 39 40 1a e9 df 3d
       1.3832636 2.3302293 2.9022872 0.109331325
000040 6a d2 6a bd c0 18 8b bf 39 7d a0 bf 51 ec c8 bb
       -0.057329573 -1.0866928 -1.2538215 -0.0061316867
000050 30 87 06 be 70 f0 4c c0 53 5f 2f 3e 77 85 f6 bf
       -0.13137507 -3.2021751 0.17126207 -1.925948
000060 72 83 88 3f 7b a2 e1 3f 8e 3c c0 3e 6b 29 35 3e
       1.0665114 1.762771 0.375462 0.17691581
000070 d4 0d 48 c0 9d fd 42 3e 68 3d 55 bf 66 55 05 40
       -3.125844 0.19042058 -0.83296824 2.0833373
000080 b5 ef 7f 3e cd 3c a7 bf ef 70 e2 bd 43 d2 64 3f
       0.24993785 -1.306543 -0.110566966 0.89383334
000090 2a ab d3 3f e6 da 76 bd 52 fa 84 be 0a 22 45 3e
       1.653661 -0.06026735 -0.2597223 0.19251266
0000a0 02 0b 2a be 5f 86 03 be 6b 4c c5 3f d8 c7 56 be
       -0.16605762 -0.12844227 1.5413946 -0.20974672
0000b0 03 3a 29 3f cb e8 4f 3d ec 87 5f bd de 1c 1d 3f
       0.66104144 0.050759118 -0.054572985 0.6137217
0000c0 ec 19 4b 3f a8 aa 9e 40 d8 45 fd 3d bd 50 05 3f
       0.7933643 4.958332 0.12366837 0.5207632
0000d0 25 fd 65 3f 94 ab 0c 3e 9b b0 87 3f 3a 7b db be
       0.8983939 0.13737327 1.0600771 -0.42867452
0000e0 f0 48 74 3e 90 8d a1 bf ad 64 84 3f 2b 2c f0 be
       0.23855948 -1.2621326 1.0343224 -0.46908697
0000f0 9c 4c c1 be 30 6f fd b8 50 b6 64 bf 9f 8d 4d bd
       -0.3775376 -0.000120846904 -0.89340687 -0.05018389
000100 e1 35 4c 3d c4 0b 2d 3e ce b2 d1 3e ae 66 a3 be
       0.04985607 0.1689902 0.4095673 -0.31914276
000110 85 19 45 bd bf 4b 42 3d 7d dc aa be ab 28 a8 be
       -0.04812004 0.04743552 -0.33371344 -0.32843527
000120 10 32 0b 3f ba d9 20 3e b6 6a 84 bd 09 ef 1f bd
       0.54373264 0.15708056 -0.06465666 -0.03904632
000130 9e 03 15 3f 78 15 59 3e 7e 57 d8 3e 8a 5f 03 3d
       0.58208644 0.21199596 0.4225425 0.032073535
000140 8d 0c 9b 3d e2 47 39 be a3 14 5a be 61 8d be 3d
       0.07570753 -0.18093827 -0.21296935 0.0930431
000150 d3 9c 76 3d 9e 94 ed be ad ab ec 3d 84 95 63 be
       0.060208153 -0.46402448 0.11556182 -0.22225004
000160 b5 38 21 3f 70 56 ad 3d 02 c5 63 3d eb f5 78 3d
       0.62977153 0.08463752 0.055607803 0.0607814
000170 58 06 05 bf b5 9e 1c 3e b3 a6 b0 bc 54 c8 b5 3e
       -0.51962805 0.15294917 -0.021563863 0.355044
000180 6b 72 20 3e ad 87 8f 3d 8e ae 12 bf e8 fc 58 3e
       0.15668647 0.070083 -0.572976 0.21190226
000190 8d 44 b0 bd 61 95 9f 3d 29 0a 31 3f 47 f9 06 3f
       -0.08606825 0.07792164 0.6915613 0.5272412
0001a0 db 50 4b bf cf 9b 0e bd 71 11 e9 3d 34 16 79 bc
       -0.7942025 -0.03481656 0.1138028 -0.015203048
0001b0 0b 6e 74 be 86 65 f9 be 10 45 2c bf 01 3f 1f be
       -0.23870103 -0.4871027 -0.6729288 -0.15551378
0001c0 ab f5 97 bc 0f df 19 be ff 01 9e bd 64 27 9e 3c
       -0.01854976 -0.15026496 -0.077152245 0.019305892
0001d0 34 27 26 be 87 75 2a 3f 3a fb 56 bc 50 a4 ad 3e
       -0.16225892 0.6658558 -0.0131214205 0.33914423
0001e0 45 8c 98 bf 9a 61 6d 3e 67 67 0e be a5 aa 94 3a
       -1.1917807 0.23181763 -0.13906632 0.001134236
0001f0 c0 fb 62 3f 57 c3 93 bd 5d ef 11 3e 2f 11 02 bf
       0.8866539 -0.072149925 0.14251466 -0.5080747
000200 e5 da cb 3d 7f 0f 93 3b 90 ef 51 be 71 26 81 3e
       0.0995386 0.0044879313 -0.20501542 0.2522464
000210 d0 bd 82 3e 5e 91 3c 3e 7e 8d dc 3e eb 67 20 bb
       0.2553544 0.18414828 0.430767 -0.0024476002
000220 fc 3a 54 bc 03 eb 2e bd 8f 08 2f 3d d9 24 1d 3e
       -0.012953516 -0.042704593 0.04273277 0.15346088
000230 15 24 ba be 98 91 9c be b6 63 4b be 10 dd 57 bd
       -0.36355653 -0.3057983 -0.19862255 -0.052701056
000240 8f 74 a4 3b 5f a5 36 3e 12 c3 2b 3e 45 65 63 3e
       0.0050187777 0.17836522 0.16773632 0.222066
000250 5f 80 19 bd a5 01 b7 3e f2 a7 e4 3d 65 4c a9 be
       -0.03747594 0.35743442 0.111648455 -0.33066097
000260 1b 2e a1 bd 79 2b 43 be ca ad 64 3d f5 aa 9e bd
       -0.07870122 -0.19059552 0.0558298 -0.07747451
000270 77 61 9c 3e f5 fb 95 3d f4 a1 9a be de 97 35 be
       0.3054311 0.073234476 -0.30201685 -0.17733714
000280 b4 b4 af 3d 3d 24 a3 bd 9a 85 b3 3e 71 9b 68 bd
       0.08579388 -0.07965896 0.35062867 -0.056788865
000290 8d 4b 29 be db a9 30 be 99 cc f1 be e9 20 a7 be
       -0.16532727 -0.17252295 -0.47226408 -0.32642296
0002a0 e2 4b 23 3f ff a9 09 3e fb 18 87 bd f3 bd 9a 3d
       0.63787663 0.13443755 -0.065965615 0.07555761
0002b0 86 05 ac 3e ed 93 d8 3e da f0 01 3f be 5c 34 bd
       0.33597964 0.42300358 0.50758135 -0.04403376
0002c0 a3 08 81 3d 8f 50 8a be 5b df 22 3d 42 1d be bd
       0.063004754 -0.27014586 0.03976379 -0.09282924
0002d0 74 06 97 3d 57 92 25 bf a7 3f 0a 3e a3 f7 94 be
       0.07374278 -0.6467642 0.13500844 -0.29095182
0002e0 3a 90 12 3f 4c 6a 2b be a4 89 d2 bc b7 b6 e5 3d
       0.5725132 -0.16739768 -0.025700398 0.11216491
0002f0 51 f5 43 bf e6 26 9e bd 82 a5 19 bd 54 c8 08 3f
       -0.765462 -0.07722263 -0.037511356 0.53430676
000300 d7 34 25 3d c6 7b 73 3e c2 1b 25 be 8f b8 0b bf
       0.040333595 0.23777685 -0.1612387 -0.5457849
000310 5c 5c bd bf 5f 65 02 3f 8c 16 43 bf 49 4a 03 bf
       -1.4793811 0.5093593 -0.7620628 -0.51285225
000320 1c a3 8c be 10 46 ff 3d 87 fe 27 bf d6 94 c3 3c
       -0.27468193 0.12464535 -0.6562275 0.023874681
000330 01 a6 1d 3f ab 45 06 be eb cf d1 be 89 9d 49 bf
       0.61581427 -0.13112514 -0.4097894 -0.78756005
000340 5e fc 64 bf 80 ed 7a c0 9a 87 96 bd 78 fa eb be
       -0.8944758 -3.9207458 -0.07350083 -0.4608953
000350 49 1f 46 bf ae 08 f6 3d af 18 fa be d4 ca 80 3e
       -0.7739149 0.12013374 -0.48846957 0.25154746
000360 2f 18 66 be 6d c1 81 3e e0 da 1f bf d4 7a 1e 3f
       -0.22470163 0.25342885 -0.6244335 0.6190617
000370 06 b2 36 3e d9 69 95 3c 25 51 9a 3f e9 ff 21 3e
       0.17841348 0.018238949 1.2056013 0.15820278
000380 13 50 8e bd 2f 2b ac bc 28 72 76 be 5e 5a ad 3d
       -0.06948867 -0.021016685 -0.24066985 0.08464502
000390 41 27 06 3e b7 e0 f4 3d 8c 6c 8b 3e 88 0b 61 3d
       0.13100912 0.119569235 0.27231252 0.054942638
0003a0 52 24 d2 39 af 8b 83 3d 8e 3a e6 3d 03 47 88 3d
       0.00040081382 0.06423127 0.11241637 0.066541694
0003b0 23 d9 a6 be 2f 11 aa be d0 62 98 be d3 29 d2 bd
       -0.32587537 -0.33216235 -0.29762888 -0.102618836
0003c0 88 c5 28 3e 29 f2 ca 3e 5f 5d 0d 3d 02 34 87 3e
       0.16481602 0.3963788 0.034512874 0.26406866
0003d0 0f 63 0d 3e 71 96 98 3e 8a db 9c bc e3 c3 e6 be
       0.13807319 0.29802278 -0.019147653 -0.45071325
0003e0 bb e8 66 be 89 12 c4 bd 98 dc d4 3d 22 ac f5 bc
       -0.22549717 -0.09573848 0.103936374 -0.029989306
0003f0 88 5f 74 3e d0 79 27 3e 8b f8 b8 be ed 09 b5 be
       0.23864567 0.16355062 -0.36127123 -0.35359135

net_l.2.bias f4 [32]
000000 c8 d9 01 3e b2 88 ec 3d f8 f0 1a bd 1a 93 0b bd
       0.12680733 0.1154951 -0.037827462 -0.034075834
000010 2a 50 4f 3e b3 06 60 bd 56 f6 4a 3d ee 60 06 3e
       0.20245424 -0.05469389 0.04955133 0.13122913
000020 e3 23 4f 3d 96 9f 12 3e 8f 6a 48 bc 7c e1 48 3d
       0.050571334 0.1431869 -0.012232437 0.049043164
000030 ac f9 cd bd f1 f9 e8 bc 5a f9 df bd dc 03 c6 3d
       -0.10057387 -0.028439494 -0.10936232 0.09668705
000040 d4 2e a7 bd 66 0b 75 be 89 70 9f 3d 0a 70 f3 3d
       -0.08163229 -0.2393013 0.07785136 0.11886604
000050 d9 78 91 3d 1b 7d 6e 3d 79 e6 80 3d 68 7d ca bd
       0.07103128 0.05822478 0.06293959 -0.098872006
000060 2c 4a 01 be cc 91 68 3d 34 77 fc bd 63 8c dc bd
       -0.1262595 0.056779668 -0.12327424 -0.10768964
000070 57 60 1f bd f3 fb 97 3d df c0 8a bd 18 64 e8 bb
       -0.038910236 0.074211024 -0.067750685 -0.00709201

net_l.4.weight f4 [1, 32]
000000 d4 2b 21 bf 6a dd cd be 8a 23 7e 3e fb b6 ab be
       -0.629575 -0.40207988 0.24818245 -0.3353804
000010 98 4d 83 be 8e 6e e0 3e 87 d1 03 3f 5f 4a 18 be
       -0.25645137 0.43834347 0.5149159 -0.1487212
000020 2c 65 3d 3e d9 30 13 3f 5c ac 14 3e 79 6d 89 3d
       0.18495625 0.5749641 0.14518875 0.067103334
000030 12 b9 28 be 29 f0 69 3f 86 0f 9e 3e 22 4b cf 3e
       -0.16476849 0.9138208 0.30871218 0.4048701
000040 18 90 60 bf 15 f0 28 3e 5d 3b 73 3e 07 b8 da be
       -0.8771987 0.16497834 0.23753114 -0.42718527
000050 56 ed 57 3e b1 5e b7 be 94 51 32 3f 0e 2c e9 3e
       0.2108663 -0.3581443 0.6965573 0.45541424
000060 ff df 86 3e 8d 0d 83 be 33 3d 9d be d7 1c ec be
       0.2634277 -0.25596276 -0.30710754 -0.46115753
000070 1f 78 1d 3e 30 9c 61 be 4c c1 88 bc 51 b8 46 3e
       0.15377854 -0.22032237 -0.016693734 0.19406249
