mfdfmodel-cowden-['CM2' 'CM9' 'CM3' 'CL2'].pt (torch, 78754 bytes, 10 tensors)

lfmodel.net_l.0.weight f4 [32, 3]
-0.046739418 -0.46531573 -0.16714475 -0.043805905 0.38902202 -0.057857804 -0.38449216 0.11582241
8.971769 -0.40486822 0.07352342 -0.7458408 -0.8133904 -0.011876531 0.20467679 -0.33175284
0.1977096 -1.3463029 -0.2927625 0.054069933 -2.0636425 -0.3545357 0.039258357 -4.0791125
-0.38997594 0.19480358 13.841996 0.50972307 -0.013058054 -0.23368935 -0.61710435 -0.019097244
0.42410445 -0.21511546 0.64684045 0.52241766 0.50857717 -0.02804915 1.2271929 -0.0698325
0.010506404 3.7255878 -0.7084451 0.27437928 7.8624883 -0.3173357 -0.060042422 0.13109545
-0.304478 -0.10522422 -0.0661659 -0.53966135 -0.04711592 -0.24602894 0.054889217 -0.15690958
-2.3289983 -0.5363962 0.016326541 0.2650353 -0.19152154 -0.0547061 -0.12767775 0.37335753
-0.10980542 -6.872931 0.51267725 -0.36589196 0.14548539 0.124324 0.047395818 -2.117305
0.6959511 -0.31719357 10.604101 0.7156069 -0.11445153 0.34972167 -0.63503474 0.04293074
0.3958376 0.4234414 0.04844151 -0.10942603 -0.0044923103 0.05301056 -15.937039 0.051132936
0.51278245 0.6348754 0.13642517 0.1609911 -1.206805 0.19051214 -0.035091657 2.4485047
00000000: d571 3fbd dd3d eebe fe27 2bbe d26d 33bd
00000010: e52d c73e 4efc 6cbd 28dc c4be 4d34 ed3d
00000020: 5e8c 0f41 e34a cfbe 7293 963d 6cef 3ebf
00000030: 5a3a 50bf c895 42bc cb96 513e 82db a9be
00000040: 6374 4a3e a753 acbf f7e4 95be 6f78 5d3d
00000050: b812 04c0 b485 b5be 5fcd 203d 1788 82c0
00000060: edaa c7be 977a 473e d178 5d41 367d 023f
00000070: 73f1 55bc 434c 6fbe 8dfa 1dbf d371 9cbc
00000080: 3824 d93e 3a47 5cbe 5697 253f 2abd 053f
00000090: 1d32 023f 55c7 e5bc a814 9d3f 5704 8fbd
000000a0: 0d23 2c3c 0870 6e40 a85c 35bf 717b 8c3e
000000b0: 8199 fb40 d379 a2be 0bef 75bd e33d 063e
000000c0: 8ae4 9bbe cc7f d7bd fd81 87bd 3f27 0abf
000000d0: 9ffc 40bd 03ef 7bbe 84d3 603d e8ac 20be
000000e0: 4f0e 15c0 4351 09bf 3dbf 853c b5b2 873e
000000f0: 391e 44be 8113 60bd f5bd 02be b828 bf3e
00000100: aae1 e0bd 0def dbc0 d13e 033f 3156 bbbe
00000110: 1ffa 143e 959d fe3d 1e22 423d ed81 07c0
00000120: da29 323f 3267 a2be 66aa 2941 0432 373f
00000130: 9065 eabd b80e b33e a391 22bf 25d8 2f3d
00000140: 3aab ca3e 50cd d83e 9b6a 463d c11a e0bd
00000150: 3b34 93bb 9a21 593d 1dfe 7ec1 c570 513d
00000160: b645 033f 3287 223f 0ab3 0b3e dada 243e
00000170: 9678 9abf 9d15 433e 45bc 0fbd 4db4 1c40

lfmodel.net_l.0.bias f4 [32]
-0.120439366 -1.4467173 0.079253666 0.21666738 0.46809545 -0.878987 0.2811828 0.22969556
-0.2693627 0.101687305 0.33554584 0.7611617 -0.8201951 0.0032145993 0.08064382 0.71857774
0.76303554 0.773188 0.81938547 -0.015542411 0.5868337 -0.15275386 0.8008098 -0.35151982
0.2592824 -0.26954 -0.15121906 -0.57117915 -0.23476824 0.46622232 -0.95700747 -0.19705759
00000000: eaa8 f6bd 082e b9bf bf4f a23d 0ede 5d3e
00000010: 35aa ef3e 4b05 61bf 31f7 8f3e 5035 6b3e
00000020: e8e9 89be 6f41 d03d aacc ab3e 7edb 423f
00000030: 4ef8 51bf 07ac 523b 9628 a53d b6f4 373f
00000040: 4c56 433f a6ef 453f 3fc3 513f 99a5 7ebc
00000050: bc3a 163f 826b 1cbe df01 4d3f 68fa b3be
00000060: aac0 843e 2601 8abe 2bd9 1abe cc38 12bf
00000070: 1667 70be b1b4 ee3e 71fe 74bf 77c9 49be

lfmodel.net_l.2.weight f4 [32, 32]
0.0067198146 0.20326093 2.4742298 -1.2663013 0.13113011 -0.77633774 -1.8610961 -2.826698
2.6209023 0.024641385 0.25803626 0.30029517 1.3832636 2.3302293 2.9022872 0.109331325
-0.057329573 -1.0866928 -1.2538215 -0.0061316867 -0.13137507 -3.2021751 0.17126207 -1.925948
1.0665114 1.762771 0.375462 0.17691581 -3.125844 0.19042058 -0.83296824 2.0833373
0.24993785 -1.306543 -0.110566966 0.89383334 1.653661 -0.06026735 -0.2597223 0.19251266
-0.16605762 -0.12844227 1.5413946 -0.20974672 0.66104144 0.050759118 -0.054572985 0.6137217
0.7933643 4.958332 0.12366837 0.5207632 0.8983939 0.13737327 1.0600771 -0.42867452
0.23855948 -1.2621326 1.0343224 -0.46908697 -0.3775376 -0.000120846904 -0.89340687 -0.05018389
0.04985607 0.1689902 0.4095673 -0.31914276 -0.04812004 0.04743552 -0.33371344 -0.32843527
0.54373264 0.15708056 -0.06465666 -0.03904632 0.58208644 0.21199596 0.4225425 0.032073535
0.07570753 -0.18093827 -0.21296935 0.0930431 0.060208153 -0.46402448 0.11556182 -0.22225004
0.62977153 0.08463752 0.055607803 0.0607814 -0.51962805 0.15294917 -0.021563863 0.355044
0.15668647 0.070083 -0.572976 0.21190226 -0.08606825 0.07792164 0.6915613 0.5272412
-0.7942025 -0.03481656 0.1138028 -0.015203048 -0.23870103 -0.4871027 -0.6729288 -0.15551378
-0.01854976 -0.15026496 -0.077152245 0.019305892 -0.16225892 0.6658558 -0.0131214205 0.33914423
-1.1917807 0.23181763 -0.13906632 0.001134236 0.8866539 -0.072149925 0.14251466 -0.5080747
0.0995386 0.0044879313 -0.20501542 0.2522464 0.2553544 0.18414828 0.430767 -0.0024476002
-0.012953516 -0.042704593 0.04273277 0.15346088 -0.36355653 -0.3057983 -0.19862255 -0.052701056
0.0050187777 0.17836522 0.16773632 0.222066 -0.03747594 0.35743442 0.111648455 -0.33066097
-0.07870122 -0.19059552 0.0558298 -0.07747451 0.3054311 0.073234476 -0.30201685 -0.17733714
0.08579388 -0.07965896 0.35062867 -0.056788865 -0.16532727 -0.17252295 -0.47226408 -0.32642296
0.63787663 0.13443755 -0.065965615 0.07555761 0.33597964 0.42300358 0.50758135 -0.04403376
0.063004754 -0.27014586 0.03976379 -0.09282924 0.07374278 -0.6467642 0.13500844 -0.29095182
0.5725132 -0.16739768 -0.025700398 0.11216491 -0.765462 -0.07722263 -0.037511356 0.53430676
0.040333595 0.23777685 -0.1612387 -0.5457849 -1.4793811 0.5093593 -0.7620628 -0.51285225
-0.27468193 0.12464535 -0.6562275 0.023874681 0.61581427 -0.13112514 -0.4097894 -0.78756005
-0.8944758 -3.9207458 -0.07350083 -0.4608953 -0.7739149 0.12013374 -0.48846957 0.25154746
-0.22470163 0.25342885 -0.6244335 0.6190617 0.17841348 0.018238949 1.2056013 0.15820278
-0.06948867 -0.021016685 -0.24066985 0.08464502 0.13100912 0.119569235 0.27231252 0.054942638
0.00040081382 0.06423127 0.11241637 0.066541694 -0.32587537 -0.33216235 -0.29762888 -0.102618836
0.16481602 0.3963788 0.034512874 0.26406866 0.13807319 0.29802278 -0.019147653 -0.45071325
-0.22549717 -0.09573848 0.103936374 -0.029989306 0.23864567 0.16355062 -0.36127123 -0.35359135
00000000: e431 dc3b a223 503e c859 1e40 2916 a2bf
00000010: f946 063e 12be 46bf 6638 eebf 9fe8 34c0
00000020: ddbc 2740 bbdc c93c 541d 843e 4ac0 993e
00000030: c80e b13f 7a22 1540 13bf 3940 1ae9 df3d
00000040: 6ad2 6abd c018 8bbf 397d a0bf 51ec c8bb
00000050: 3087 06be 70f0 4cc0 535f 2f3e 7785 f6bf
00000060: 7283 883f 7ba2 e13f 8e3c c03e 6b29 353e
00000070: d40d 48c0 9dfd 423e 683d 55bf 6655 0540
00000080: b5ef 7f3e cd3c a7bf ef70 e2bd 43d2 643f
00000090: 2aab d33f e6da 76bd 52fa 84be 0a22 453e
000000a0: 020b 2abe 5f86 03be 6b4c c53f d8c7 56be
000000b0: 033a 293f cbe8 4f3d ec87 5fbd de1c 1d3f
000000c0: ec19 4b3f a8aa 9e40 d845 fd3d bd50 053f
000000d0: 25fd 653f 94ab 0c3e 9bb0 873f 3a7b dbbe
000000e0: f048 743e 908d a1bf ad64 843f 2b2c f0be
000000f0: 9c4c c1be 306f fdb8 50b6 64bf 9f8d 4dbd
00000100: e135 4c3d c40b 2d3e ceb2 d13e ae66 a3be
00000110: 8519 45bd bf4b 423d 7ddc aabe ab28 a8be
00000120: 1032 0b3f bad9 203e b66a 84bd 09ef 1fbd
00000130: 9e03 153f 7815 593e 7e57 d83e 8a5f 033d
00000140: 8d0c 9b3d e247 39be a314 5abe 618d be3d
00000150: d39c 763d 9e94 edbe adab ec3d 8495 63be
00000160: b538 213f 7056 ad3d 02c5 633d ebf5 783d
00000170: 5806 05bf b59e 1c3e b3a6 b0bc 54c8 b53e
00000180: 6b72 203e ad87 8f3d 8eae 12bf e8fc 583e
00000190: 8d44 b0bd 6195 9f3d 290a 313f 47f9 063f
000001a0: db50 4bbf cf9b 0ebd 7111 e93d 3416 79bc
000001b0: 0b6e 74be 8665 f9be 1045 2cbf 013f 1fbe
000001c0: abf5 97bc 0fdf 19be ff01 9ebd 6427 9e3c
000001d0: 3427 26be 8775 2a3f 3afb 56bc 50a4 ad3e
000001e0: 458c 98bf 9a61 6d3e 6767 0ebe a5aa 943a
000001f0: c0fb 623f 57c3 93bd 5def 113e 2f11 02bf
00000200: e5da cb3d 7f0f 933b 90ef 51be 7126 813e
00000210: d0bd 823e 5e91 3c3e 7e8d dc3e eb67 20bb
00000220: fc3a 54bc 03eb 2ebd 8f08 2f3d d924 1d3e
00000230: 1524 babe 9891 9cbe b663 4bbe 10dd 57bd
00000240: 8f74 a43b 5fa5 363e 12c3 2b3e 4565 633e
00000250: 5f80 19bd a501 b73e f2a7 e43d 654c a9be
00000260: 1b2e a1bd 792b 43be caad 643d f5aa 9ebd
00000270: 7761 9c3e f5fb 953d f4a1 9abe de97 35be
00000280: b4b4 af3d 3d24 a3bd 9a85 b33e 719b 68bd
00000290: 8d4b 29be dba9 30be 99cc f1be e920 a7be
000002a0: e24b 233f ffa9 093e fb18 87bd f3bd 9a3d
000002b0: 8605 ac3e ed93 d83e daf0 013f be5c 34bd
000002c0: a308 813d 8f50 8abe 5bdf 223d 421d bebd
000002d0: 7406 973d 5792 25bf a73f 0a3e a3f7 94be
000002e0: 3a90 123f 4c6a 2bbe a489 d2bc b7b6 e53d
000002f0: 51f5 43bf e626 9ebd 82a5 19bd 54c8 083f
00000300: d734 253d c67b 733e c21b 25be 8fb8 0bbf
00000310: 5c5c bdbf 5f65 023f 8c16 43bf 494a 03bf
00000320: 1ca3 8cbe 1046 ff3d 87fe 27bf d694 c33c
00000330: 01a6 1d3f ab45 06be ebcf d1be 899d 49bf
00000340: 5efc 64bf 80ed 7ac0 9a87 96bd 78fa ebbe
00000350: 491f 46bf ae08 f63d af18 fabe d4ca 803e
00000360: 2f18 66be 6dc1 813e e0da 1fbf d47a 1e3f
00000370: 06b2 363e d969 953c 2551 9a3f e9ff 213e
00000380: 1350 8ebd 2f2b acbc 2872 76be 5e5a ad3d
00000390: 4127 063e b7e0 f43d 8c6c 8b3e 880b 613d
000003a0: 5224 d239 af8b 833d 8e3a e63d 0347 883d
000003b0: 23d9 a6be 2f11 aabe d062 98be d329 d2bd
000003c0: 88c5 283e 29f2 ca3e 5f5d 0d3d 0234 873e
000003d0: 0f63 0d3e 7196 983e 8adb 9cbc e3c3 e6be
000003e0: bbe8 66be 8912 c4bd 98dc d43d 22ac f5bc
000003f0: 885f 743e d079 273e 8bf8 b8be ed09 b5be

lfmodel.net_l.2.bias f4 [32]
0.12680733 0.1154951 -0.037827462 -0.034075834 0.20245424 -0.05469389 0.04955133 0.13122913
0.050571334 0.1431869 -0.012232437 0.049043164 -0.10057387 -0.028439494 -0.10936232 0.09668705
-0.08163229 -0.2393013 0.07785136 0.11886604 0.07103128 0.05822478 0.06293959 -0.098872006
-0.1262595 0.056779668 -0.12327424 -0.10768964 -0.038910236 0.074211024 -0.067750685 -0.00709201
00000000: c8d9 013e b288 ec3d f8f0 1abd 1a93 0bbd
00000010: 2a50 4f3e b306 60bd 56f6 4a3d ee60 063e
00000020: e323 4f3d 969f 123e 8f6a 48bc 7ce1 483d
00000030: acf9 cdbd f1f9 e8bc 5af9 dfbd dc03 c63d
00000040: d42e a7bd 660b 75be 8970 9f3d 0a70 f33d
00000050: d978 913d 1b7d 6e3d 79e6 803d 687d cabd
00000060: 2c4a 01be cc91 683d 3477 fcbd 638c dcbd
00000070: 5760 1fbd f3fb 973d dfc0 8abd 1864 e8bb

lfmodel.net_l.4.weight f4 [1, 32]
-0.629575 -0.40207988 0.24818245 -0.3353804 -0.25645137 0.43834347 0.5149159 -0.1487212
0.18495625 0.5749641 0.14518875 0.067103334 -0.16476849 0.9138208 0.30871218 0.4048701
-0.8771987 0.16497834 0.23753114 -0.42718527 0.2108663 -0.3581443 0.6965573 0.45541424
0.2634277 -0.25596276 -0.30710754 -0.46115753 0.15377854 -0.22032237 -0.016693734 0.19406249
00000000: d42b 21bf 6add cdbe 8a23 7e3e fbb6 abbe
00000010: 984d 83be 8e6e e03e 87d1 033f 5f4a 18be
00000020: 2c65 3d3e d930 133f 5cac 143e 796d 893d
00000030: 12b9 28be 29f0 693f 860f 9e3e 224b cf3e
00000040: 1890 60bf 15f0 283e 5d3b 733e 07b8 dabe
00000050: 56ed 573e b15e b7be 9451 323f 0e2c e93e
00000060: ffdf 863e 8d0d 83be 333d 9dbe d71c ecbe
00000070: 1f78 1d3e 309c 61be 4cc1 88bc 51b8 463e

net_scale.layer_1.weight f4 [128, 3]
0.2913745 0.25694442 -6.033551 0.35017845 0.034000956 -1.4254991 0.3429568 -0.24565798
0.632441 -0.12920266 -0.074587554 1.2768453 0.04202579 0.1038348 -3.0507593 0.10515751
0.017041368 3.5458498 -0.33143604 0.14397685 -0.9636828 -0.0998699 0.10739583 -0.26969427
0.009738165 0.0036990202 0.532598 -0.12645368 0.044476848 -4.6141405 0.5509233 -0.23498158
-1.456103 -0.11724881 -0.27460963 -0.97931993 0.15778098 0.011679558 3.57375 0.52066994
-0.028445737 -1.0837159 0.66390365 -0.26598024 -3.3934848 0.06287976 0.012465192 -0.74844104
0.2503834 -0.124490105 -4.102667 0.25198805 0.32573086 2.172628 -0.061523046 0.00598637
5.825314 0.09272181 -0.14634117 1.6980071 0.11133966 -0.3402475 -0.44591355 -0.009315947
-0.028168105 0.85551363 -0.08959084 -0.030983074 -7.0436535 0.40158552 -0.08331856 4.166158
-0.03901669 0.33841532 0.7697412 -0.05225862 0.011197923 -3.26596 0.2776047 0.10633662
-6.255877 -0.006851009 0.004494958 -0.79150486 0.659406 -0.21741207 3.641426 0.6441594
-0.024832735 -0.25655657 0.19387606 -0.025417803 -1.3377893 0.11100726 0.32060653 1.808572
0.016650388 -0.0044116885 -1.1308508 0.60403985 -0.26463968 0.17670104 0.29303104 -0.19304608
0.16492009 -0.66915256 0.10250407 0.022503247 0.4385551 -0.24194527 3.2253745 -0.45740882
0.021021515 3.0622885 0.36358768 -0.26492614 2.2970812 0.016224857 -0.13789475 2.6416173
-0.16617317 0.06180491 -2.380948 -0.6745867 0.3768655 4.8505583 -0.014000287 -0.00589019
-0.62665063 0.2665845 -0.20151904 3.860375 0.25225487 0.21991561 0.4887154 0.09383109
-0.029051872 -6.4731145 -0.30832592 -0.030520234 5.6732287 -0.027734416 -0.071059234 -7.5096684
0.1374648 0.07001653 -1.8311785 0.05936296 0.00940256 1.1661818 0.03558258 -0.024928713
-6.207898 0.5465184 -0.014106037 -1.8446047 -0.11514951 0.14386469 -1.9729089 -0.030131357
-0.10988626 1.6099958 -0.09739922 0.077085495 -2.1101778 -0.46737555 -0.31457546 -4.4761314
0.2908174 -0.10816983 1.4213015 -0.32181218 0.0019400046 3.546867 0.060848724 0.12163979
-3.5424697 0.000548757 7.833712e-05 -0.58686244 -0.3687201 0.029594274 -0.78268754 0.03223414
0.00372191 6.4417286 -0.42804945 0.09995259 -1.43592 0.0049535153 0.00040455585 -0.45514372
0.58772177 -0.017295528 -0.3385633 0.09286944 -0.1644368 -5.818446 0.019570898 -0.0048790546
1.7330257 0.21100026 -0.085342854 4.370149 -0.30755383 -0.039088387 1.7824842 -0.44945776
0.079310864 1.2352027 0.6041388 -0.04356536 -1.5900296 0.055409115 -0.0020209788 2.8259072
-0.13583684 -0.06026349 1.6972967 0.011041372 0.0034801476 -0.3035865 -0.43832913 0.120445356
-5.595725 0.7017922 -0.36237362 -1.3680623 0.05475071 0.0027351652 1.9363967 -0.08475835
-0.007939559 -3.8875573 -0.07770231 0.0042903903 -3.7068958 0.01748401 0.11792182 -0.069846585
0.12423388 -0.09533115 4.1354227 -0.03646943 -0.15078625 -0.30195278 -0.8786677 0.2960497
3.9610965 -0.29131466 -0.035786755 2.2925177 0.25048932 0.027607262 -2.3046346 0.43518427
00000000: 0a2f 953e 388e 833e da12 c1c0 974a b33e
00000010: 9644 0b3d c176 b6bf 0998 af3e c48d 7bbe
00000020: a7e7 213f b44d 04be 5cc1 98bd ab6f a33f
00000030: 3c23 2c3d 57a7 d43d a43f 43c0 d25c d73d
00000040: 579a 8b3c 34ef 6240 fcb1 a9be ab6e 133e
00000050: eab3 76bf 9788 ccbd 58f2 db3d 5e15 8abe
00000060: d38c 1f3c 436b 723b 5858 083f 137d 01be
00000070: 5b2d 363d 0aa7 93c0 4f09 0d3f 039f 70be
00000080: 9561 babf 2520 f0bd a299 8cbe b6b4 7abf
00000090: 5691 213e 9e5b 3f3c 52b8 6440 a04a 053f
000000a0: 0907 e9bc 34b7 8abf 97f5 293f 902e 88be
000000b0: db2e 59c0 1bc7 803d ce3a 4c3c d599 3fbf
000000c0: 4132 803e abf4 febd 0c49 83c0 9404 813e
000000d0: 32c6 a63e 560c 0b40 97ff 7bbd 5029 c43b
000000e0: f968 ba40 efe4 bd3d 76da 15be 4c58 d93f
000000f0: 0c06 e43d ec34 aebe c84e e4be eaa1 18bc
00000100: ccc0 e6bc f102 5b3f 677b b7bd 37d0 fdbc
00000110: 9c65 e1c0 9e9c cd3e eca2 aabd 2b51 8540
00000120: f7cf 1fbd c644 ad3e c20d 453f 220d 56bd
00000130: 7e77 373c 7d05 51c0 3422 8e3e 04c7 d93d
00000140: 2530 c8c0 6e7e e0bb 714a 933b 10a0 4abf
00000150: d5ce 283f 45a1 5ebe 200d 6940 a1e7 243f
00000160: 056e cbbc 625b 83be 7287 463e ff38 d0bc
00000170: ae3c abbf c657 e33d 8a26 a43e 4a7f e73f
00000180: 6566 883c ed8f 90bb b8bf 90bf 5ba2 1a3f
00000190: da7e 87be 1ef1 343e 2a08 963e dfad 45be
000001a0: d0e0 283e 954d 2bbf a7ed d13d bb58 b83c
000001b0: 4b8a e03e 80c0 77be 896c 4e40 7d31 eabe
000001c0: 5035 ac3c 89fc 4340 2a28 ba3e 66a4 87be
000001d0: 6103 1340 fee9 843c 4834 0dbe 4210 2940
000001e0: 4d29 2abe 2527 7d3d 7461 18c0 b7b1 2cbf
000001f0: 84f4 c03e c637 9b40 7661 65bc 7f02 c1bb
00000200: 2d6c 20bf c37d 883e 025b 4ebe 6210 7740
00000210: 8d27 813e 8f31 613e e838 fa3e 842a c03d
00000220: 31fe edbc c123 cfc0 e5dc 9dbe 9205 fabc
00000230: 178b b540 4933 e3bc 8187 91bd 344f f0c0
00000240: 93c3 0c3e d464 8f3d 0f64 eabf 9326 733d
00000250: 320d 1a3c 7245 953f 0abf 113d 4d37 ccbc
00000260: 1aa7 c6c0 a1e8 0b3f 021d 67bc 021c ecbf
00000270: 82d3 ebbd 4451 133e 4788 fcbf 09d6 f6bc
00000280: 0c0c e1bd 5814 ce3f 3e79 c7bd 00df 9d3d
00000290: 270d 07c0 d94b efbe 0910 a1be 783c 8fc0
000002a0: 05e6 943e 2588 ddbd 35ed b53f 91c4 a4be
000002b0: c147 fe3a deff 6240 833c 793d 481e f93d
000002c0: d3b7 62c0 75da 0f3a ec48 a438 9e3c 16bf
000002d0: e2c8 bcbe b16f f23c 365e 48bf f207 043d
000002e0: 4aeb 733b a422 ce40 4c29 dbbe f2b3 cc3d
000002f0: 3acc b7bf 1951 a23b 911a d439 9908 e9be
00000300: ef74 163f 5aaf 8dbc 2b58 adbe 5532 be3d
00000310: 1f62 28be b630 bac0 2653 a03c 7ae0 9fbb
00000320: c9d3 dd3f 7410 583e 3cc8 aebd 43d8 8b40
00000330: b277 9dbe 251b 20bd 7128 e43f 541f e6be
00000340: bc6d a23d 1f1b 9e3f d7a8 1a3f 9771 32bd
00000350: 1786 cbbf abf4 623d 6672 04bb aadb 3440
00000360: d018 0bbe d9d6 76bd 0541 d93f dfe6 343c
00000370: 3013 643b b16f 9bbe ad6c e0be 0eac f63d
00000380: 2e10 b3c0 a7a8 333f 0989 b9be aa1c afbf
00000390: 4842 603d 7540 333b d9db f73f c995 adbd
000003a0: ed14 02bc bdcd 78c0 6422 9fbd 6796 8c3b
000003b0: c83d 6dc0 a03a 8f3c ff80 f13d ba0b 8fbd
000003c0: 556e fe3d fa3c c3bd 6255 8440 f860 15bd
000003d0: b667 1abe 8e99 9abe 5ef0 60bf d493 973e
000003e0: 9b82 7d40 3227 95be 2295 12bd 9cb8 1240
000003f0: 2340 803e a028 e23c 227f 13c0 79d0 de3e

net_scale.layer_1.bias f4 [128]
-0.86143184 -0.53383464 0.6185027 0.4797216 -0.59395885 -0.4427753 -0.26663375 -0.4709518
-0.04792716 0.15058775 0.47760507 0.4447909 -0.47989032 -0.39303538 0.6355579 -0.10670355
0.5238194 -0.74099666 -0.19739512 0.524117 0.7876263 0.13280703 0.20402497 -0.3281813
-0.6849423 0.19877568 -0.27615437 0.039671827 -0.09682121 -0.566412 -0.029777577 -0.5294205
0.10417905 0.4043183 0.5793235 0.27664548 0.277517 0.27146295 0.5981988 0.621553
0.04515744 -0.49152234 0.036667276 0.6586556 -0.8571919 -0.23328207 0.12700242 0.256106
-0.46857375 -0.16436341 -0.037726212 -0.49288344 -0.48352587 0.5249329 -0.11854985 0.87672055
0.08369915 0.2380669 -0.6701231 0.0317409 0.33531618 0.02987286 0.066513106 0.008834195
-0.5517422 0.5956945 -0.1100974 -0.012755295 0.50207543 0.058569353 -0.40541893 -0.21873388
0.37463412 0.020815972 0.11286238 0.7849326 -0.19313581 0.37197033 0.30167526 -0.31258905
0.19779545 0.61651146 0.43817714 0.45216462 -0.36088735 -0.18328163 0.01711975 0.4467165
0.23026511 -0.3247979 -0.10347492 -0.4727356 0.61899406 -0.030277029 0.659083 -0.0007565714
0.6751057 0.33640936 -0.59499127 0.21099904 -0.14639871 0.1250045 0.07559971 -0.4696471
-0.09375463 0.7283719 -0.4522816 -0.4847851 -0.49166963 0.2952593 -0.1370907 0.06583008
-0.30907968 -0.1776739 -0.18650392 0.0404875 -0.74041015 0.24245462 0.36238766 0.0061849924
-0.24039587 0.23505758 -0.09153764 -0.7269463 -0.15008287 -0.39317223 -0.16469799 0.49269986
00000000: cc86 5cbf 63a9 08bf 3156 1e3f 129e f53e
00000010: b00d 18bf 72b3 e2be 3884 88be 9820 f1be
00000020: 454f 44bd ad33 1a3e a788 f43e a2bb e33e
00000030: 2fb4 f5be ef3b c9be ecb3 223f 6487 dabd
00000040: 0719 063f f5b1 3dbf f221 4abe 882c 063f
00000050: e1a1 493f 91fe 073e eceb 503e 6107 a8be
00000060: 6158 2fbf da8b 4b3e 1b64 8dbe ed7e 223d
00000070: 334a c6bd 6000 11bf 1bf0 f3bc 1a88 07bf
00000080: d35b d53d cf02 cf3e 8b4e 143f 7aa4 8d3e
00000090: b516 8e3e 31fd 8a3e 8e23 193f 191e 1f3f
000000a0: 02f7 383d d1a8 fbbe 6d30 163d a79d 283f
000000b0: ee70 5bbf 7fe1 6ebe ec0c 023e 5320 833e
000000c0: e6e8 efbe e24e 28be cd86 1abd 385b fcbe
000000d0: b490 f7be 0162 063f 44ca f2bd c270 603f
000000e0: 766a ab3d cfc7 733e 308d 2bbf bf02 023d
000000f0: 90ae ab3e eeb7 f43c 0638 883d 4dbd 103c
00000100: fa3e 0dbf 6f7f 183f bf7a e1bd 96fb 50bc
00000110: 0488 003f 6be6 6f3d 1293 cfbe c6fb 5fbe
00000120: 0bd0 bf3e 4286 aa3c 6424 e73d 58f1 483f
00000130: 65c5 45be e572 be3e 2e75 9a3e ac0b a0be
00000140: e48a 4a3e b2d3 1d3f c158 e03e 1f82 e73e
00000150: 3ac6 b8be 2eae 3bbe b83e 8c3c 06b8 e43e
00000160: 9eca 6b3e e94b a6be a9ea d3bd 670a f2be
00000170: 6576 1e3f 8807 f8bc aab9 283f a654 46ba
00000180: bad3 2c3f d93d ac3e 5951 18bf 2210 583e
00000190: 8be9 15be 2e01 003e 05d4 9a3d 9675 f0be
000001a0: 6d02 c0bd 9576 3a3f 7491 e7be c135 f8be
000001b0: 1fbc fbbe 3a2c 973e 8161 0cbe ecd1 863d
000001c0: b13f 9ebe 26f0 35be e2fa 3ebe 39d6 253d
000001d0: 858b 3dbf 0646 783e e08a b93e 7aab ca3b
000001e0: 562a 76be efb2 703e 1678 bbbd 2719 3abf
000001f0: 53af 19be df4d c9be 97a6 28be 2843 fc3e

net_scale.layer_3.weight f4 [128, 128]
-0.17588176 -0.005319196 0.07239335 -0.02049912 0.19043168 -0.11838245 -0.041614756 -0.037231714
-0.06691887 -0.009649495 -0.042276878 0.0036534255 -0.034575474 -0.038771626 0.05670644 0.054187205
0.07829703 0.05514423 0.06489246 -0.11678615 -0.056554735 0.047436457 0.06655565 -0.082328446
-0.02107264 0.03716407 -0.20110466 0.040544257 0.036300905 0.031777423 -0.045759965 0.12735838
-0.026237534 -0.005261695 0.073879585 -0.043964114 0.039428137 0.07412235 -0.07776008 0.03447903
0.04573158 -0.028430527 -0.09006179 -0.093930505 0.040369634 -0.023086186 0.13436203 0.073217705
0.009455707 0.06126175 0.11946815 0.056933206 -0.014871497 0.009092857 0.104912855 -0.1137324
0.038263842 -0.037667356 0.0064634653 -0.08937949 -0.061647262 0.012241759 -0.04808946 -0.048066374
0.08322578 0.006379386 -0.0025360617 -0.12904626 -0.09740163 -0.07448322 0.053168364 -0.037068054
-0.08137319 0.039639693 0.17768784 -0.048457857 -0.019800486 -0.03783197 -0.032282103 -0.028657004
-0.012511948 -0.08461658 -0.03581864 -0.04252959 0.07238646 0.03871204 0.059920628 -0.026020322
0.018412862 0.07604779 0.05652177 -0.0062942966 0.08222706 0.0120993 -0.11100288 0.020164302
0.05374991 -0.012543634 0.04064311 -0.041849777 -0.06302784 0.0015630381 0.1656071 -0.07905835
0.0072534005 0.03416331 0.09135504 0.09522615 -0.035854284 -0.004972153 0.019248936 0.082138784
-0.47052294 -0.030495768 -0.06576109 -0.022370601 0.07002559 0.062355816 -0.010539623 -0.028607063
-0.2193653 -0.0073876367 0.024568139 0.008450174 0.00558135 0.070517495 0.016314007 -0.017821083
1.2121922 0.74793565 -0.052305132 -0.59075564 0.83487105 -1.0274625 -0.096046224 -0.11121903
-0.12337686 0.81319195 0.46687993 0.008742402 -0.5818937 1.0975343 0.7652586 0.35416108
0.7531362 -0.05787263 -1.4628488 -0.36685282 -0.10983323 -0.026644008 2.6626883 -0.2508831
0.05920935 0.6353921 1.0449362 0.0114993835 -0.08568031 0.7396529 0.5894585 -0.16923064
0.21110177 0.12466555 -0.030074557 -0.40201184 -0.2840466 -0.8344047 -0.21324097 -0.5526346
0.41037998 -0.84344774 -0.037680212 -0.512629 0.03105353 2.0918305 -0.9824653 2.1999612
0.65364075 0.061288167 2.550108 1.0111926 0.34416664 -0.5477474 0.5907566 0.2893983
0.0849488 -1.7463988 0.85234034 0.09560247 -0.30953917 -2.1783555 -0.18964194 0.0705354
0.8634792 1.4765756 -0.2284928 -0.8790618 -1.506722 -0.8831442 0.8323272 -0.41711777
-1.2827922 0.11369549 0.6875272 0.26010764 -0.15891518 1.4804767 0.66955966 -0.057684265
-0.927388 0.12555476 -0.5487363 -1.6731594 1.6189442 0.24307095 2.0950377 -0.6204049
0.78880244 0.04194642 -0.15441303 -0.66778636 0.012941968 1.5479182 -0.36492187 0.038919352
-0.00021791563 0.105014905 0.75046617 0.14431855 0.87852615 0.20168984 2.2679644 0.21571094
0.7475225 -0.47175536 0.00255078 -0.1800927 -0.41380045 1.9261451 0.17191206 0.1480867
1.3320233 1.101638 -0.364558 -0.36748797 -0.036884863 1.199687 -1.1003124 0.04987353
-0.61317754 1.008081 -1.2316599 0.7654564 -0.30330664 -0.08363581 0.20866567 -0.45608774
00000000: 591a 34be a64c aebb f742 943d c5ed a7bc
00000010: 8600 433e 7f72 f2bd 3c74 2abd 4880 18bd
00000020: c30c 89bd ea18 1ebc 852a 2dbd 4f6e 6f3b
00000030: 039f 0dbd ffce 1ebd 0345 683d 67f3 5d3d
00000040: 315a a03d ebde 613d 57e6 843d 942d efbd
00000050: f0a5 67bd bb4c 423d 544e 883d d19b a8bd
00000060: 87a0 acbc 5a39 183d 61ee 4dbe bc11 263d
00000070: 42b0 143d 0b29 023d cd6e 3bbd 3c6a 023e
00000080: 19f0 d6bc 4c6a acbb 2e4e 973d b713 34bd
00000090: 667f 213d 75cd 973d ad40 9fbd e239 0d3d
000000a0: 0a51 3b3d 23e7 e8bc 5172 b8bd a35e c0bd
000000b0: a15a 253d 3e1f bdbc 3396 093e 2af3 953d
000000c0: 1cec 1a3c 9aed 7a3d b8ab f43d cb32 693d
000000d0: 94a7 73bc 35fa 143c 8ddc d63d 88ec e8bd
000000e0: 8cba 1c3d 1649 1abd 7acb d33b 980c b7bd
000000f0: d781 7cbd a991 483c 74f9 44bd 3fe1 44bd
00000100: 4772 aa3d 2b0a d13b 0e34 26bb b424 04be
00000110: 817a c7bd a98a 98bd 12c7 593d acd4 17bd
00000120: fda6 a6bd 3b5d 223d cdf3 353e bf7b 46bd
00000130: a134 a2bc b2f5 1abd 3d3a 04bd 18c2 eabc
00000140: eafe 4cbc 754b adbd 91b6 12bd 8233 2ebd
00000150: 5a3f 943d 8490 1e3d 556f 753d 9228 d5bc
00000160: 92d6 963c f2be 9b3d 5f83 673d 6340 cebb
00000170: a966 a83d 243c 463c 7a55 e3bd 9b2f a53c
00000180: de28 5c3d d083 4dbc 6479 263d ac6a 2bbd
00000190: bd14 81bd dbde cc3a e894 293e 58e9 a1bd
000001a0: efad ed3b d4ee 0b3d 5a18 bb3d ed05 c33d
000001b0: f1db 12bd 71ed a2bb f2af 9d3c 6138 a83d
000001c0: 62e8 f0be 43d2 f9bc c0ad 86bd 8d42 b7bc
000001d0: 9469 8f3d d068 7f3d 62ae 2cbc 5c59 eabc
000001e0: 4ca1 60be fd13 f2bb 1f43 c93c 9972 0a3c
000001f0: c2e3 b63b 7a6b 903d f4a4 853c 85fd 91bc
00000200: 1d29 9b3f b678 3f3f e83d 56bd c33b 17bf
00000210: 1cba 553f e483 83bf e2b3 c4bd cec6 e3bd
00000220: 02ad fcbd 592d 503f e30a ef3e 4b3c 0f3c
00000230: fcf6 14bf 017c 8c3f fde7 433f 9a54 b53e
00000240: 89cd 403f da0b 6dbd a13e bbbf 22d4 bbbe
00000250: 3ff0 e0bd 8944 dabc 7c69 2a40 c073 80be
00000260: 8185 723d 0fa9 223f 78c0 853f e967 3c3c
00000270: 2979 afbd e459 3d3f c1e6 163f cc4a 2dbe
00000280: 102b 583e a750 ff3d eb5e f6bc 7fd4 cdbe
00000290: 8e6e 91be 8c9b 55bf d75b 5abe 7679 0dbf
000002a0: 531d d23e 31ec 57bf 9156 1abd a73b 03bf
000002b0: f963 fe3c 8de0 0540 d982 7bbf 2acc 0c40
000002c0: 0055 273f 4d09 7b3d f834 2340 c26e 813f
000002d0: 9c36 b03e 2c39 0cbf d33b 173f 042c 943e
000002e0: a3f9 ad3d ff89 dfbf fa32 5a3f 3acb c33d
000002f0: eb7b 9ebe 2d6a 0bc0 7f31 42be dd74 903d
00000300: f90c 5d3f 6e00 bd3f 04fa 69be 320a 61bf
00000310: 44dc c0bf bd15 62bf 6513 553f 7690 d5be
00000320: 8932 a4bf 2ed9 e83d c801 303f d42c 853e
00000330: a9ba 22be 4380 bd3f 4368 2b3f 5646 6cbd
00000340: 4d69 6dbf 6d91 003e fb79 0cbf 162a d6bf
00000350: 9039 cf3f 97e7 783e 1915 0640 dbd2 1ebf
00000360: f5ee 493f 02d0 2b3d 731e 1ebe 0cf4 2abf
00000370: 8c0a 543c 2f22 c63f 0ad7 babe e669 1f3d
00000380: 4880 64b9 0e12 d73d 8d1e 403f 3ec8 133e
00000390: 17e7 603f c887 4e3e 5426 1140 54e3 5c3e
000003a0: a25d 3f3f eb89 f1be fd2a 273b 396a 38be
000003b0: a7dd d3be ec8b f63f b709 303e 0aa4 173e
000003c0: bd7f aa3f 7902 8d3f 59a7 babe 6227 bcbe
000003d0: 9514 17bd 588f 993f 09d7 8cbf 3048 4c3d
000003e0: 34f9 1cbf cc08 813f 08a7 9dbf f3f4 433f
000003f0: 024b 9bbe 4049 abbd 74ac 553e 5584 e9be

net_scale.layer_3.bias f4 [128]
0.07606077 -0.15699667 -0.053739578 0.09692885 -0.037208453 0.031188652 0.02492684 0.076455586
0.016290648 -0.007886382 -0.051040288 -0.06146349 0.021031618 -0.018244568 -0.053741153 -0.51460606
-0.08776596 -0.04245874 -0.016288728 0.12817742 0.0015470085 0.08942657 -0.09864203 0.070292175
-0.0355257 0.016420797 0.0043135546 0.11630718 0.076847285 -0.088786736 -0.0013299925 0.013277759
-0.067455634 -0.00069595245 0.052457407 0.019625774 0.03118824 -0.13062929 0.015208325 0.021201877
-0.030092293 -0.0028663157 -0.02058377 0.052395567 0.052978616 0.09170133 -0.015844276 0.08746796
-0.058688533 -0.06904084 -0.02444973 0.011643693 0.04718237 0.026751036 -0.050949015 0.018809669
0.06255456 -0.021908632 0.09904255 -0.116726704 -0.11356077 0.041104876 0.088097416 0.036321077
-0.007526049 0.07334535 -0.029277 -0.016624123 0.016042355 0.008389817 -0.06443081 -0.00013214693
-0.01577647 -0.12156422 -0.020727012 0.08244552 -0.025034575 -0.03831996 0.013810168 0.1489614
-0.030051341 -0.085361116 0.122142345 0.042653333 0.037247077 0.045069143 0.031426556 -0.43877852
0.04424867 -0.07761512 -0.05158063 -0.052036203 -0.06452687 0.036541905 -0.0121987 -0.069923565
0.03181032 0.08371183 0.0027733278 0.043166805 0.015480894 0.061618008 -0.068781585 -0.014765665
0.01273786 -0.008537528 0.044492695 0.06742313 -0.046419933 0.025840692 -0.05733315 0.12014843
0.023572706 -0.05431446 -0.025577588 0.116241336 0.033412743 0.002985817 -0.026591169 -0.035237916
-0.09896847 0.08386142 0.04410864 -0.03125812 -0.012486573 0.08414525 0.0594434 -0.0019954294
00000000: c0c5 9b3d bcc3 20be 081e 5cbd a282 c63d
00000010: e467 18bd 587f ff3c 5f33 cc3c bf94 9c3d
00000020: f773 853c e235 01bc 9f0f 51bd 24c1 7bbd
00000030: 804a ac3c a275 95bc af1f 5cbd 39bd 03bf
00000040: a4be b3bd 37e9 2dbd f06f 85bc f140 033e
00000050: fec4 ca3a 4725 b73d d504 cabd 58f5 8f3d
00000060: 6583 11bd e884 863c b858 8d3b 7532 ee3d
00000070: 1c62 9d3d d2d5 b5bd 2553 aeba f58a 593c
00000080: 2e26 8abd 9470 36ba 94dd 563d 3bc6 a03c
00000090: 7b7e ff3c afc3 05be 572c 793c 8faf ad3c
000000a0: 1d84 f6bc ccd8 3bbb 4b9f a8bc bc9c 563d
000000b0: 1b00 593d e8cd bb3d dbcb 81bc 6722 b33d
000000c0: 6363 70bd 4965 8dbd cd4a c8bc 30c5 3e3c
000000d0: 4d42 413d fd24 db3c eaaf 50bd bc16 9a3c
000000e0: 9b1c 803d bb79 b3bc d2d6 ca3d 690e efbd
000000f0: 8d92 e8bd 965d 283d 6b6c b43d 69c5 143d
00000100: 139d f6bb 1636 963d 52d6 efbc 502f 88bc
00000110: 426b 833c 7175 093c 4df4 83bd ec90 0ab9
00000120: a83d 81bc a9f6 f8bd b2cb a9bc 32d9 a83d
00000130: 4f15 cdbc 64f5 1cbd 0b44 623c 5689 183e
00000140: 3b2e f6bc cfd1 aebd c425 fa3d 43b5 2e3d
00000150: 6490 183d 6c9a 383d 22b9 003d 94a7 e0be
00000160: 183e 353d adf4 9ebd 3646 53bd ea23 55bd
00000170: aa26 84bd f7ac 153d 0edd 47bc 1634 8fbd
00000180: 8a4b 023d 1c71 ab3d b8c0 353b adcf 303d
00000190: 93a3 7d3c 2a63 7c3d 5cdd 8cbd b0eb 71bc
000001a0: 75b2 503c fde0 0bbc f93d 363d 2315 8a3d
000001b0: d422 3ebd dcaf d33c 2ad6 6abd 6110 f63d
000001c0: 8c1b c13c d778 5ebd 1788 d1bc f00f ee3d
000001d0: cddb 083d b2ad 433b b9d5 d9bc a255 10bd
000001e0: fbaf cabd 89bf ab3d 43ab 343d 8408 00bd
000001f0: 7c94 4cbc 5854 ac3d ec7a 733d c0c5 02bb

net_scale.layer_6.weight f4 [1, 128]
-0.0035167697 0.012881097 0.009198593 -0.0073799184 0.0022855662 -0.0008836476 0.011680745 -0.0109005
-0.020246698 -0.010928909 0.0076253363 -0.00040219742 0.007866629 0.014837238 -0.011604616 0.01586573
0.014320341 0.0035699944 -0.0074289213 -0.011837322 -0.011823568 -0.015614492 0.018232323 -0.019961871
-0.00033700909 -0.0019023283 -0.009803338 -0.014911628 -0.00020542897 0.010703709 0.012266415 0.005276139
0.0015285808 -0.00731932 7.5610136e-05 -0.011186906 0.009744598 0.0065280492 -0.0136054065 0.0070256833
-0.00030814583 0.010558942 -0.0011312196 -0.00089685316 0.00033177267 -0.00084294414 -0.00812405 -0.0065708794
0.014688396 -0.011115834 0.011831003 0.009443631 -0.0068420083 -0.010565379 -0.008140794 6.364832e-05
-0.007856534 0.0030896 -0.006922636 0.013937953 0.009501502 -0.008806778 -0.0072156973 -0.01234106
-0.0075129787 -0.011396223 0.010752609 0.00077379995 -0.007036381 0.014015018 0.013814486 -0.0036494369
0.010861662 0.015398444 -0.0091956165 -0.008449606 0.014515944 0.009424219 -0.012876712 -0.009115155
0.0073624477 0.0125724245 -0.0008247295 -0.005503365 -0.0018152242 -0.007555915 -0.009176046 0.01686175
-0.016209975 0.007580904 0.0012755296 0.007291407 -0.007109275 -0.012483206 0.010971748 0.013621132
-0.00909353 -0.008688876 0.0018114243 0.0076712146 -0.0074191736 -0.011498542 0.005743683 0.010450652
0.00815379 -0.020696752 -0.009959901 -0.015760148 -0.0108245 0.001301548 0.0012390314 -0.005279895
0.0011636787 0.0041317493 0.00012686501 -0.010230348 -0.012937981 0.005954098 0.012831411 0.014468346
0.013434163 -0.005076085 0.0002626894 -0.009902898 -0.005725084 -0.012511558 -0.009047015 0.0118566435
00000000: 9b79 66bb 3d0b 533c b2b5 163c 3ed3 f1bb
00000010: 70c9 153b 96a4 67ba 9860 3f3c 0398 32bc
00000020: 67dc a5bc 2b0f 33bc f5dd f93b 06de d2b9
00000030: 09e3 003c e317 733c 4a21 3ebc d9f8 813c
00000040: dd9f 6a3c 91f6 693b 4f6e f3bb 54f1 41bc
00000050: a3b7 41bc edd3 7fbc f45b 953c 1487 a3bc
00000060: 98b0 b0b9 8c57 f9ba 2e9e 20bc e74f 74bc
00000070: 6b68 57b9 9c5e 2f3c 13f9 483c 76e3 ac3b
00000080: a95a c83a e8d6 efbb e290 9e38 4949 37bc
00000090: cea7 1f3c 3fe9 d53b 36e9 5ebc b437 e63b
000000a0: a28e a1b9 6aff 2c3c 6e45 94ba cc1a 6bba
000000b0: c6f1 ad39 06f9 5cba bc1a 05bc 8850 d7bb
000000c0: 99a7 703c 301f 36bc d3d6 413c 76b9 1a3c
000000d0: ed32 e0bb 691a 2dbc f760 05bc ee7a 8538
000000e0: b1b8 00bc e37a 4a3b 48d7 e2bb 035c 643c
000000f0: 30ac 1b3c 4e4a 10bc a871 ecbb 2832 4abc
00000100: 6f2f f6bb 39b7 3abc b62b 303c d6d8 4a3a
00000110: 7191 e6bb 3f9f 653c 2756 623c 642b 6fbb
00000120: 1df5 313c c149 7c3c 36a9 16bc 3770 0abc
00000130: 48d4 6d3c 0a68 1a3c d8f8 52bc bb57 15bc
00000140: b040 f13b 92fc 4d3c a932 58ba 9255 b4bb
00000150: d1ec edba 9c97 f7bb 2057 16bc a721 8a3c
00000160: c8ca 84bc 3b69 f83b ac2f a73a c1ec ee3b
00000170: ecf4 e8bb 5c86 4cbc d9c2 333c 2b2b 5f3c
00000180: 07fd 14bc ca5b 0ebc 506d ed3a d05e fb3b
00000190: 8a1c f3bb 6164 3cbc 8135 bc3b 3639 2b3c
000001a0: 7997 053c 3c8c a9bc da2e 23bc 6d1b 81bc
000001b0: 3e59 31bc b498 aa3a ff66 a23a f802 adbb
000001c0: 9486 983a a063 873b 1107 0539 319d 27bc
000001d0: d3f9 53bc 981a c33b d73a 523c a40c 6d3c
000001e0: f71a 5c3c 4a55 a6bb 93b9 8939 c43f 22bc
000001f0: 7c99 bbbb 47fd 4cbc ee39 14bc 5e42 423c
