tfnn.pt (torch, 349283 bytes, 15 tensors)

lfmodel.lfmodel.net_l.0.weight f4 [32, 3]
0	0xbe69afeb	-0.22821014
1	0xbf2d639c	-0.67730117
2	0xbecd3c10	-0.40084887
3	0xbea83275	-0.32850996
4	0x3e7f5d26	0.24937877
5	0x3f4ea29a	0.8071686
6	0xbebed62f	-0.37272784
7	0x3de04a5c	0.10951683
8	0x4115a86d	9.35362
9	0xbed3fdc9	-0.4140456
10	0x3dc9f7ff	0.098617546
11	0xbf5461a9	-0.8296152
12	0xbf779027	-0.96704334
13	0xbcfffee4	-0.031249471
14	0x3e51072f	0.20412897
15	0xbeceaf6c	-0.4036821
16	0x3e8a4bf5	0.27011076
17	0xc085b290	-4.178047
18	0xbe88e033	-0.2673355
19	0x3d4ad400	0.049518585
20	0xc006b40c	-2.1047392
21	0xbf030c57	-0.51190704
22	0x3ddbb14a	0.107271746
23	0xc0d198a6	-6.549884
24	0xbc622577	-0.013802878
25	0x3c50554d	0.01271565
26	0x419cb80e	19.58987
27	0x3ee472c1	0.446188
28	0xbde2b917	-0.11070459
29	0xbf26355c	-0.6492517
30	0xbf2db61e	-0.67856014
31	0xbcbcf1ed	-0.023064578
32	0x3f019257	0.5061392
33	0xbdbdf4a3	-0.092751764
34	0x3f4c3862	0.79773533
35	0x3f496f19	0.78685147
36	0x3f0520b1	0.5200301
37	0xbc2994aa	-0.010350386
38	0x3f9b1bcc	1.2117858
39	0xbdf12ee2	-0.1177652
40	0x3cca105b	0.024666002
41	0x4088aba0	4.2709503
42	0xbf13ba0b	-0.57705754
43	0x3e257f1d	0.16161771
44	0x40a84c4f	5.259315
45	0xbe33f3c0	-0.17573452
46	0xbe01a64b	-0.12661092
47	0x3f0b6a34	0.5445893
48	0xbe98fb87	-0.298794
49	0xbda16966	-0.07881431
50	0x3efabd60	0.48972607
51	0xbf0e7b55	-0.5565694
52	0xbd708d7b	-0.058728676
53	0xbedf7674	-0.4364506
54	0x3e00386f	0.12521528
55	0xbe3b2347	-0.18275176
56	0xc094e2bb	-4.652677
57	0xbef043c5	-0.46926704
58	0x3de847c5	0.11341814
59	0x3e97f027	0.2967541
60	0x3de555d2	0.111980096
61	0xbd911fff	-0.07086181
62	0xc00021b5	-2.0020573
63	0x3eba0d07	0.36338064
64	0xbdc8d8cc	-0.09806976
65	0xc1127c80	-9.1553955
66	0x3f1ff0e8	0.6247697
67	0xbeb8199f	-0.35957047
68	0x3fd3e0ad	1.6552941
69	0x3d3fcfc0	0.046828985
70	0x3d697058	0.056991905
71	0xc05975fb	-3.397826
72	0x3dd685c5	0.10474733
73	0xbd792a64	-0.060831442
74	0x41879eae	16.95248
75	0x3ef5d656	0.48015088
76	0xbdc4279c	-0.095778674
77	0x3ed9a863	0.4251128
78	0xbf27d16c	-0.6555393
79	0x3db132a2	0.086522356
80	0x3f10cdd4	0.5656407
81	0xbddbd93c	-0.107347935
82	0x3f0ef426	0.5584129
83	0x3d699a20	0.05703175
84	0xbe913229	-0.28358582
85	0xbf31a92b	-0.69398755
86	0xbf3fb48d	-0.74884874
87	0x3e1f8d3f	0.15581225
88	0x3f1df489	0.61701256
89	0x3eec9b43	0.46212205
90	0x3d1202d5	0.035647232
91	0x3e23a1a5	0.15979631
92	0xc03c8118	-2.9453793
93	0x3da99bf9	0.082817025
94	0xbc437962	-0.011930795
95	0x4037728c	2.8663664

lfmodel.lfmodel.net_l.0.bias f4 [32]
0	0xbeebb7a6	-0.4603855
1	0xbf3fab9a	-0.7487122
2	0x3df78a3e	0.120869145
3	0x3e87a72d	0.26494732
4	0x3f09ffc6	0.53905904
5	0xbf689bb9	-0.90862614
6	0x3e858816	0.26080388
7	0x3eace98b	0.3377193
8	0xbc9c4207	-0.019074453
9	0xbe2c4e4b	-0.16826741
10	0x3ec23886	0.3793375
11	0x3f71d3c9	0.94463784
12	0xbf526592	-0.82186234
13	0x3c8bdcee	0.01707312
14	0x3dbae41d	0.091255404
15	0x3f74bc3b	0.95599717
16	0x3f5a662f	0.8531217
17	0x3f4c8dd6	0.79903924
18	0x3f482c55	0.78192645
19	0x3e82db3f	0.25557896
20	0x3f0b8b07	0.54509014
21	0xbe04ba86	-0.12961778
22	0x3f353f33	0.7079956
23	0xbe934e06	-0.28770465
24	0x3dcd09af	0.100116126
25	0xbeb8c1b8	-0.36085296
26	0xbd1cdbfd	-0.038295735
27	0xc02fd8c3	-2.747605
28	0xbf62e2f6	-0.88627565
29	0x3f15fdc0	0.58590317
30	0xbf6a0219	-0.9140945
31	0xbe311f1f	-0.17297028

lfmodel.lfmodel.net_l.2.weight f4 [32, 32]
0	0xbc3b4310	-0.011429563
1	0x3ebb8b05	0.366295
2	0x401d0273	2.4532745
3	0xbf771972	-0.965232
4	0x3e538c3a	0.20658961
5	0xbfe01f0b	-1.7509474
6	0xc022269d	-2.5336068
7	0xc0229f72	-2.5409818
8	0x3fe7724d	1.8081757
9	0x3d665393	0.056232046
10	0x3eb42364	0.3518325
11	0x3e9c3cf5	0.30515257
12	0x3fbe0126	1.48441
13	0x4047c1a1	3.1211932
14	0x4027d7a7	2.6225374
15	0x3e81a739	0.25322893
16	0x3e88f8eb	0.2675241
17	0xbf5363f1	-0.82574373
18	0xc02a9ce1	-2.6658251
19	0x3d7faf81	0.062423233
20	0xbf0bd9ba	-0.546291
21	0xc02a3c4a	-2.6599298
22	0x3f9198d4	1.1374764
23	0xc01210bb	-2.2822711
24	0x3fcc00b1	1.5937711
25	0x3f149b57	0.5804953
26	0x3f01498a	0.50502837
27	0x3d53d0bc	0.051712736
28	0xbc04960b	-0.008092414
29	0x3e47c2d3	0.19507913
30	0xc01da7cf	-2.4633672
31	0x4051a7ff	3.2758787
32	0x3eb92ebe	0.36168474
33	0xbf002327	-0.5005364
34	0x3ee58382	0.44826895
35	0x3ecceba4	0.4002353
36	0x40b23261	5.56865
37	0x3dc50b12	0.09621252
38	0x3eefcdb8	0.46836638
39	0x3ec318bf	0.38104817
40	0xbda7fd7c	-0.08202645
41	0xbea7584d	-0.32684556
42	0x400b5e6e	2.1776385
43	0xbeb7b45a	-0.35879785
44	0xbf58a870	-0.84632015
45	0x3f050e18	0.5197463
46	0x3ecd2a89	0.40071514
47	0xbf3a3897	-0.727426
48	0x3ecdae45	0.4017202
49	0x40860387	4.1879306
50	0xbf2ecd19	-0.68281704
51	0x3f5624de	0.83650005
52	0xbe888d93	-0.26670513
53	0xbf004d80	-0.50118256
54	0x3fd0afd9	1.6303664
55	0x3db9cf9c	0.090728015
56	0xbf04bd32	-0.5185119
57	0xbfa62881	-1.2981111
58	0x403377ee	2.804195
59	0xc007f769	-2.1244757
60	0x3dfeae95	0.12435643
61	0xbe1eece8	-0.1552006
62	0x3f3c1f78	0.7348552
63	0xbe7413d5	-0.2383569
64	0x3daf0027	0.08544951
65	0x3d8d88fb	0.069108926
66	0x3e716e38	0.23577201
67	0xbe7ce3de	-0.246963
68	0xbda03e40	-0.07824373
69	0x3cdf7165	0.02727575
70	0xbd60d41b	-0.05488978
71	0xbe5c68df	-0.2152438
72	0x3ee9ddc3	0.45677003
73	0x3e40524c	0.18781394
74	0xbc05face	-0.008177472
75	0xbd5b28fd	-0.053505886
76	0x3e18f9ad	0.14938994
77	0x3e9458b8	0.28973937
78	0x3e511907	0.20419703
79	0x3d7ab330	0.061206043
80	0x3dac1c03	0.0840378
81	0xbe21c2ef	-0.15797018
82	0xbe3641cb	-0.17798536
83	0x3d8df61c	0.06931707
84	0x3e75ab9f	0.2399125
85	0xbe49e663	-0.19716792
86	0x3eb44457	0.3520839
87	0xbe087d36	-0.13329014
88	0x3ecbfdee	0.3984217
89	0x3e93672f	0.2878966
90	0x3dc7ff4f	0.09765493
91	0xbc7242d6	-0.014786443
92	0x3daa06ea	0.083021
93	0x3e0ba4a0	0.13637018
94	0xbe2dd8dc	-0.16977257
95	0x3e890aee	0.2676615
96	0x3e23f3d4	0.16010982
97	0xbe584d7c	-0.21123308
98	0xbfb99471	-1.4498426
99	0x3f199383	0.5999071
100	0xbe3b61f7	-0.1829909
101	0x3f6914c3	0.91047305
102	0x3f9a4ebc	1.2055278
103	0x3fd1bf08	1.6386423
104	0xc06db266	-3.7140136
105	0x3dc064a9	0.093941994
106	0xbd03609d	-0.03207456
107	0xbb1e449d	-0.0024149783
108	0xbfdd1d0c	-1.7274489
109	0xbfaa39aa	-1.3298848
110	0xbf9e8367	-1.2383851
111	0xbe2a491c	-0.16629452
112	0xbdfa6fea	-0.12228377
113	0x3daa8d35	0.08327714
114	0x3f60dcb6	0.8783678
115	0xbe2554dc	-0.16145653
116	0x3e25770c	0.16158694
117	0x3fc698a4	1.5515332
118	0xbf01ce0e	-0.5070504
119	0x3fa9deca	1.3271115
120	0xc04369fa	-3.0533433
121	0xbbfb7684	-0.0076740403
122	0xbea487ad	-0.32134762
123	0x3c04d97f	0.008108496
124	0xbe01c486	-0.12672624
125	0xbd811c34	-0.063042074
126	0x3f9485bc	1.1603312
127	0xbf89166d	-1.0709969
128	0x3d972051	0.07379211
129	0x3e62f429	0.22163452
130	0xbe37aa69	-0.179361
131	0x3f36627a	0.71244013
132	0x3eb454ef	0.3522105
133	0x3ec88abf	0.39168355
134	0x3f0863a8	0.53277063
135	0x3b558ceb	0.0032585214
136	0x3baeab3b	0.005330471
137	0xbf340cad	-0.7033184
138	0x3da9531e	0.082678065
139	0x3e232baa	0.15934625
140	0xbf307f21	-0.68943983
141	0xbe65d008	-0.22442639
142	0xbdffad95	-0.1248428
143	0xbe640df7	-0.22270952
144	0x3dce535b	0.100744925
145	0x3e81893b	0.2530001
146	0x3dc688b8	0.09694046
147	0x3f400ccd	0.7501953
148	0xbf1cb29b	-0.6121003
149	0x3e8835e9	0.2660363
150	0xbf1aaf6b	-0.60423917
151	0xbd981bbd	-0.07427166
152	0xbde95967	-0.11394005
153	0xbebf3f2a	-0.37352878
154	0x3e031b23	0.1280332
155	0x3d8b69cd	0.06807289
156	0x3dcc08d8	0.09962624
157	0x3da33b49	0.07970292
158	0x3d2c8a27	0.04212394
159	0xbdce7ccb	-0.10082396
160	0x3dfb383c	0.12266585
161	0xbe8415a4	-0.2579776
162	0x3e273ed6	0.16332564
163	0xbd7886f8	-0.06067559
164	0xbe1697fe	-0.14706418
165	0xbf19d012	-0.60083115
166	0xbecdb16e	-0.4017443
167	0xbefd962f	-0.49528643
168	0x3f4da1e8	0.80325174
169	0x3e05396a	0.13010183
170	0x3ce4e4ad	0.027941072
171	0x3d538c9c	0.051647767
172	0x3ee77986	0.45209903
173	0x3ea80779	0.328182
174	0x3e08ea31	0.13370587
175	0xbd42263d	-0.047399748
176	0x3d92d565	0.07169608
177	0xbe840ae6	-0.25789565
178	0xbd3b2424	-0.045688763
179	0xbd2841a1	-0.041078214
180	0x3e386a1c	0.18009228
181	0xbed6f9f2	-0.41987568
182	0x3ececc38	0.40390182
183	0xbe9e44e0	-0.30911922
184	0x3f13cfeb	0.5773913
185	0x3d915162	0.07095601
186	0x3d9c1876	0.07621853
187	0x3d9229c2	0.07136871
188	0xbda7eca9	-0.08199436
189	0xbdce5f6c	-0.10076794
190	0xbe6d3d18	-0.23167837
191	0x3ee284cf	0.4424195
192	0x3dc03b5d	0.09386323
193	0x3cdfe9ea	0.027333219
194	0xbe9ebe13	-0.3100439
195	0xbf7e6852	-0.9937793
196	0xc07c6eb5	-3.944257
197	0x3f67052c	0.90242267
198	0xbff120c0	-1.883812
199	0xbe7717f6	-0.24130234
200	0xbe2198d5	-0.15780957
201	0x3e731864	0.23739773
202	0xbfba364c	-1.454782
203	0xbd0220ff	-0.03176975
204	0x40229fb8	2.5409985
205	0xbeadd8ae	-0.33954376
206	0xbf024581	-0.50887305
207	0xc01bdbb3	-2.4352844
208	0xc02b8868	-2.6802006
209	0xc10a84a7	-8.657386
210	0x3e89a07f	0.2688026
211	0xbf3c33bd	-0.73516446
212	0xbfae8e44	-1.3637166
213	0x3ea7329e	0.32655805
214	0xbf937620	-1.1520424
215	0x3ef0d722	0.47039133
216	0x3eb29434	0.34878695
217	0x3fe17e34	1.7616639
218	0xbf20d31a	-0.62822115
219	0x3fb08f75	1.379378
220	0x3e30390d	0.17209263
221	0xbcd3ac42	-0.025838975
222	0x3fe04ad3	1.7522835
223	0x3d34c447	0.044132497
224	0xbe19e5f9	-0.15029134
225	0xbee6142a	-0.4493726
226	0xbeff3c1e	-0.49850553
227	0xbe0b3e9a	-0.135981
228	0x3ca0e221	0.019639077
229	0x3de7d041	0.11319018
230	0xbfa652ff	-1.2994078
231	0x3e668b2a	0.22514024
232	0xbf1d9193	-0.61550254
233	0x3e2698b7	0.16269194
234	0x3c3d5778	0.011556499
235	0x3e13cb32	0.14432982
236	0xb9dbefc5	-0.00041949577
237	0xbee2d8c0	-0.44305992
238	0xbf100630	-0.5625944
239	0x3c69a0d1	0.014259533
240	0x3e06564e	0.1311886
241	0x3e12be51	0.14330412
242	0x3e96d84e	0.29461902
243	0x3e172397	0.1475967
244	0x3e28844b	0.16456716
245	0x3f28d7a3	0.65954036
246	0x3ef8b5ad	0.48576108
247	0x3cd3cd1f	0.025854645
248	0xbf5e3968	-0.86806345
249	0x3e4a31f9	0.19745626
250	0xbb529a43	-0.0032135404
251	0xbeae6be3	-0.34066686
252	0xbd52b1be	-0.05143904
253	0x3e761ad6	0.24033675
254	0xbe1e7f90	-0.15478349
255	0xbec0b8b6	-0.37640923

lfmodel.lfmodel.net_l.2.bias f4 [32]
0	0x3e0472f2	0.12934473
1	0xbd1de58c	-0.03854899
2	0xbd4453fb	-0.047931653
3	0xbc8e6a70	-0.017384738
4	0x3e5317d4	0.20614558
5	0xbd9c7443	-0.07639363
6	0xbc1fd3c6	-0.009755081
7	0x3e567b31	0.20945431
8	0x3e086d08	0.13322842
9	0x3d919e7d	0.07110307
10	0x3d489e4d	0.048979092
11	0x3dc6a09d	0.09698603
12	0xbdc1dc5b	-0.094658576
13	0x3d85c92c	0.06532511
14	0x3d6c6535	0.057713706
15	0x3e3f2638	0.18666923
16	0xbd2707c0	-0.040778875
17	0xbed19da7	-0.40940592
18	0x3d8f796b	0.070055805
19	0x3e549a19	0.20761909
20	0x3dd24fcd	0.10269127
21	0xbd53248e	-0.051548533
22	0x3e83386c	0.25628984
23	0xbd3900f3	-0.04516692
24	0x3d25bc32	0.04046268
25	0x3e32d510	0.1746409
26	0x3cc00bb4	0.02344308
27	0xbe7c4a08	-0.24637616
28	0xbc87f832	-0.016597841
29	0x3ea33f1f	0.31884095
30	0x3e7a872b	0.24465625
31	0xbd19d56e	-0.037557058

lfmodel.lfmodel.net_l.4.weight f4 [1, 32]
0	0xbf228f97	-0.6350035
1	0xbecc65b8	-0.39921355
2	0x3e317325	0.1732908
3	0xbf10932f	-0.56474584
4	0xbe1d8166	-0.15381393
5	0x3ebad0de	0.36487478
6	0x3f0985a3	0.5371954
7	0xbe314f18	-0.17315328
8	0x3e2c64da	0.16835347
9	0x3ef2a724	0.47393143
10	0x3e38509c	0.179995
11	0x3e16e4ce	0.1473572
12	0xbd9dc43f	-0.077034466
13	0x3f355b2b	0.70842236
14	0x3e9db5dc	0.3080281
15	0x3fcdd8ca	1.6081784
16	0xbe769e66	-0.24083862
17	0x3de7b821	0.11314417
18	0x3ec69aa3	0.38789853
19	0xbe873c30	-0.26413107
20	0x3e7ee32d	0.24891348
21	0xbe8d40b3	-0.27588424
22	0x3e72cb12	0.23710278
23	0x3f06a86c	0.5260074
24	0x38f0e6f6	0.000114871116
25	0xbdfa7443	-0.122292064
26	0xbde479fd	-0.1115608
27	0xbedb7b16	-0.42867345
28	0x3e29cd2e	0.16582176
29	0xbeb28198	-0.34864497
30	0x3e808798	0.2510345
31	0x3e62f781	0.22164728

lfmodel.net_scale.layer_1.weight f4 [128, 3]
0	0xbf065bbd	-0.5248373
1	0x3ec8526e	0.3912539
2	0xbeb3d4ad	-0.35123196
3	0xbf16d7f9	-0.589233
4	0x3ea678f9	0.3251417
5	0x3f74201c	0.95361495
6	0xbe868a3d	-0.26277342
7	0x3ea146d7	0.3149936
8	0xbdf687c1	-0.12037612
9	0x3db02227	0.08600264
10	0xbe536e6c	-0.20647591
11	0xbecd2dee	-0.40074104
12	0x3e88c683	0.26713952
13	0xbdff61f0	-0.12469852
14	0xbfc722b3	-1.5557464
15	0xbceb0933	-0.02869091
16	0xbd722797	-0.059119787
17	0x3f82d1db	1.0220293
18	0x3dd1f49d	0.102517344
19	0xbe86db88	-0.26339364
20	0xbf421289	-0.7580953
21	0x3e827a66	0.25484008
22	0xbe22716a	-0.15863577
23	0x3fc71a2f	1.5554866
24	0xbe97c8b7	-0.2964532
25	0x3d86546e	0.065590724
26	0xbffd4a59	-1.9788314
27	0x3ec9dce4	0.3942634
28	0x3b8eb944	0.0043555815
29	0xc0962f46	-4.6932707
30	0x3f218ec6	0.6310848
31	0xbdffd546	-0.124918506
32	0xc01f2a95	-2.486974
33	0x3d0640a8	0.032776505
34	0x3d62f773	0.055411767
35	0x3f73ac38	0.9518466
36	0x3e416b9c	0.18888706
37	0x3d72731b	0.059191804
38	0xbfb1b725	-1.3884016
39	0x3ed0ac47	0.40756437
40	0xbd633f44	-0.055480257
41	0x407b6133	3.9278076
42	0x3e62d76c	0.2215249
43	0x3c46a53f	0.012124359
44	0xc098f8ad	-4.780356
45	0x3e5376dd	0.20650811
46	0xbe2de8af	-0.16983293
47	0x3f514267	0.81741947
48	0xbf04a4f1	-0.5181418
49	0x3e91edf1	0.28501847
50	0x3f93a1fc	1.1533809
51	0x3e58e454	0.2118085
52	0xbd0e2e83	-0.034712326
53	0x40964eca	4.697118
54	0xbf427ce7	-0.75971836
55	0x3e105b19	0.14097251
56	0x3f422e36	0.7585176
57	0xbf2258f9	-0.6341701
58	0x3d38b8e5	0.045098204
59	0x3f860148	1.0469141
60	0xbe0d0f54	-0.13775378
61	0xbc9f98f0	-0.019482106
62	0x3e4664a9	0.19374336
63	0xbed30843	-0.4121724
64	0x3d08d161	0.033402804
65	0x3fde148a	1.7350018
66	0xbeab83d1	-0.33499005
67	0x3d61c011	0.05511481
68	0xc0541d58	-3.314291
69	0x3ebfce8a	0.37462264
70	0x3ed8a1cf	0.4231095
71	0x3e34f6ae	0.17672226
72	0xbe94969a	-0.2902115
73	0xbd336065	-0.0437931
74	0x3f95f70d	1.1716019
75	0xbea3ee92	-0.32017952
76	0xbeeb0a11	-0.45906118
77	0xbe033bbe	-0.12815759
78	0x3f0b7e68	0.54489756
79	0x3be7520b	0.007059341
80	0xbc2077f7	-0.009794227
81	0x3b80ea2e	0.0039341664
82	0xbbea1177	-0.0071431953
83	0x3fad38d6	1.353297
84	0x3f31cc5a	0.6945244
85	0xbe267eff	-0.16259383
86	0xbfb152aa	-1.3853352
87	0x3edbd58c	0.4293636
88	0x3c9ed1d5	0.019387165
89	0x402d1a64	2.7047358
90	0x3f036891	0.5133143
91	0xbe9be0b4	-0.30444872
92	0x3e62ff49	0.22167696
93	0x3f070a00	0.52749634
94	0x3ed5e3a5	0.41775241
95	0xbc84322f	-0.01613721
96	0x3ec063ed	0.37576237
97	0xbd6ab288	-0.057299167
98	0xbfa9ede4	-1.3275723
99	0x3d97a686	0.07404809
100	0x3d1a2077	0.037628617
101	0xbf245bdf	-0.64202684
102	0x3c74df89	0.014945873
103	0x3da17498	0.078835666
104	0xbfdfaae9	-1.7474033
105	0x3e5a81a0	0.2133851
106	0x3e91d646	0.2848379
107	0xbe999852	-0.29999024
108	0xbe341708	-0.1758691
109	0xbf09d142	-0.5383493
110	0xbd279211	-0.040910784
111	0x3dde3f2b	0.10851892
112	0x3d0bb563	0.03410853
113	0xbfd58574	-1.6681352
114	0x3eecfcf7	0.46286747
115	0xbe13456c	-0.14381951
116	0xc034bd97	-2.8240716
117	0xbe2c6f5e	-0.16839358
118	0xbe752993	-0.2394164
119	0xc02de923	-2.7173545
120	0x3bfeaeeb	0.0077723167
121	0x3d2ed946	0.042687677
122	0xc0a37c9a	-5.10896
123	0xbdb03a4b	-0.086048685
124	0xbcec637c	-0.028856032
125	0x3f573856	0.84070337
126	0x3eb5308c	0.353886
127	0xbdc3c8d9	-0.09559793
128	0xc018465c	-2.3792944
129	0x3e836a75	0.25667158
130	0xbe91c09d	-0.28467265
131	0xbf72e038	-0.9487338
132	0xbf1417f7	-0.5784907
133	0x3e12f413	0.1435092
134	0xc06d02db	-3.7032993
135	0x3e1ef308	0.15522397
136	0x3cf83ecd	0.030303383
137	0x3f9793a6	1.1841934
138	0xbe88b19b	-0.26698002
139	0x3e672055	0.22570927
140	0xbea09096	-0.3136031
141	0x3f0ab9e9	0.54189926
142	0x3f3c45f8	0.73544264
143	0x3ea79f35	0.32738653
144	0x3eff7fa8	0.4990208
145	0x3b2f5b85	0.002675743
146	0xc08d4d85	-4.415713
147	0x3e6155b3	0.22005348
148	0xbd825868	-0.063645184
149	0xbf6bb458	-0.9207206
150	0x3f1b79d7	0.6073279
151	0x3f0d00db	0.5507943
152	0x3e200551	0.15627028
153	0xbed60c53	-0.41806278
154	0x3cde37ae	0.02712616
155	0xc03453c9	-2.8176138
156	0x3ed1d718	0.40984416
157	0xbe01204a	-0.12609974
158	0x404cc3ec	3.1994581
159	0x3e40566a	0.18782964
160	0x3d140453	0.036136936
161	0x40e6a202	7.2072763
162	0x3ee27610	0.442307
163	0x3ecc255d	0.39872256
164	0x3d0be358	0.03415236
165	0x3d01ef8e	0.031722598
166	0x3dd45f88	0.10369784
167	0xbd03dd1d	-0.032193292
168	0xbf054e6c	-0.5207279
169	0xbf3cc302	-0.7373506
170	0xbe8dc43a	-0.2768877
171	0x3cd95773	0.026530957
172	0xbd0a8c51	-0.033825222
173	0x3f662dce	0.8991364
174	0xbd27911f	-0.040909883
175	0x3cb09c57	0.021558924
176	0x3f609190	0.8772211
177	0x3dd53383	0.10410216
178	0xbe37ab4f	-0.17936443
179	0x3d94a25d	0.07257531
180	0xbf12a4ec	-0.572829
181	0x3e82a3f8	0.25515723
182	0x3fe820a8	1.8134966
183	0x3f33b2d8	0.7019477
184	0x3e8f3577	0.27970478
185	0x410522d3	8.321002
186	0x3e610a47	0.21976577
187	0xbb44dea0	-0.0030039921
188	0x40286dd8	2.6317043
189	0x3e04bdf4	0.12963086
190	0x3d0c55ea	0.03426162
191	0xc0b0c24d	-5.5237184
192	0x3e949b62	0.29024798
193	0x3d399224	0.045305386
194	0xbff5b895	-1.9196955
195	0x3aa32d71	0.0012449456
196	0x3d6bfc29	0.057613526
197	0xbf06a0d0	-0.5258913
198	0xbf588e5c	-0.84592223
199	0xbe4dd26d	-0.20099802
200	0xc117786d	-9.466901
201	0x3efddfde	0.4958486
202	0xbe95f73b	-0.29290184
203	0xc0509516	-3.2590995
204	0x3ea052ea	0.31313258
205	0xbe16195a	-0.14658108
206	0x4076d997	3.8570306
207	0xbe7f1047	-0.24908553
208	0x3d0eb70b	0.034842532
209	0xc04a5e4c	-3.1620054
210	0xbe39c0b0	-0.1813991
211	0xbbe72d59	-0.0070549664
212	0xc0c6329b	-6.1936774
213	0xbef2746a	-0.47354442
214	0xbae05bf7	-0.0017117251
215	0x3f861a66	1.0476806
216	0x3e04a956	0.12955222
217	0xbcecae0c	-0.028891586
218	0x40a4fdc3	5.155977
219	0xbf17033f	-0.5898933
220	0x3ddb9238	0.107212484
221	0xc069e064	-3.6543207
222	0xbd92ce68	-0.07168275
223	0x3e1b1d62	0.15147927
224	0xc0549566	-3.3216186
225	0xbdff4126	-0.12463598
226	0x3d47140b	0.0486031
227	0x3f0b5690	0.5442896
228	0xbe6bc377	-0.23023783
229	0xbe3b6f72	-0.18304232
230	0x40c12f34	6.037012
231	0x3d9f5c5b	0.07781287
232	0x3d60f4bf	0.054920908
233	0xc01014df	-2.2512739
234	0x3f40450c	0.7510536
235	0xbe17a339	-0.14808358
236	0xbf719826	-0.94372785
237	0xbef21c00	-0.47286987
238	0xbe4a67f9	-0.19766225
239	0xc03ec2a1	-2.9806292
240	0x3ebf2b53	0.3733774
241	0xbe256174	-0.16150457
242	0x3f90ca40	1.1311722
243	0xbf2130cb	-0.6296508
244	0x3eb5745a	0.35440332
245	0x405df937	3.4683359
246	0xbeb78b8d	-0.35848656
247	0xbb91be3a	-0.0044477256
248	0xbf437786	-0.76354253
249	0xbb5691b0	-0.0032740645
250	0xbcb6ee26	-0.022330355
251	0x408832d7	4.256206
252	0xbd113947	-0.035455015
253	0x3d9cd504	0.07657817
254	0xbf1e1926	-0.61757123
255	0xbe7555e3	-0.23958544

lfmodel.net_scale.layer_1.bias f4 [128]
0	0xbf67d943	-0.9056589
1	0xbf361a5a	-0.7113396
2	0xbf460efd	-0.7736662
3	0x3f1e52e3	0.61845225
4	0x3ed996a8	0.42497754
5	0x3e95c53c	0.2925204
6	0x3f5aa273	0.8540413
7	0x3eee61a2	0.46558863
8	0x3daa58b9	0.08317704
9	0xbe9b93d5	-0.30386224
10	0xbd03e080	-0.03219652
11	0xbeba4901	-0.36383823
12	0xbef7234e	-0.48269123
13	0xbebe991a	-0.37226182
14	0xbdc181eb	-0.09448608
15	0x3ee94cf7	0.45566532
16	0xbf270770	-0.65245724
17	0xbe47a512	-0.19496563
18	0x3e9990ad	0.2999319
19	0x3edaf500	0.42765045
20	0x3e872571	0.26395753
21	0x3e61012a	0.219731
22	0x3e8dfa39	0.27729967
23	0x3e9bf3db	0.30459484
24	0x3eeefaab	0.4667562
25	0xbd0f7697	-0.035025205
26	0xbf21e9b2	-0.63247216
27	0xbd55cb5d	-0.052195895
28	0x3ab50205	0.0013809806
29	0x3c0c8f13	0.008579033
30	0x3ccce72f	0.02501258
31	0xbc2b1965	-0.010443066
32	0xbe16188c	-0.14657801
33	0xbe890c93	-0.26767406
34	0xbeb2311b	-0.3480309
35	0x3ea095d4	0.3136431
36	0x3e8dcbe6	0.27694625
37	0xbe7a96a5	-0.24471529
38	0x3dbe15f4	0.09281531
39	0x3e9309d1	0.28718427
40	0xbcf98800	-0.030460358
41	0x3e4c8fb0	0.19976687
42	0x3e04ce14	0.12969238
43	0x3f45667e	0.77109516
44	0x3df4e76f	0.11958205
45	0xbedfcbc5	-0.4371015
46	0xbf0e0700	-0.5547943
47	0x3f40f233	0.75369567
48	0xbee40df1	-0.44541886
49	0x3e0c42c3	0.13697343
50	0xbb97ab63	-0.004628585
51	0x3f180214	0.5937817
52	0x3d074357	0.033023205
53	0xbeb2abaa	-0.34896594
54	0x3e14e2d2	0.1453965
55	0xbee76e9a	-0.4520157
56	0xbf03ef94	-0.5153744
57	0x3ddf5a2a	0.10905869
58	0xbe13cfd0	-0.14434743
59	0x3f13bb82	0.5770799
60	0xbefabe35	-0.4897324
61	0xbf6122ed	-0.8794392
62	0xbed27f87	-0.4111292
63	0xbdddd78d	-0.10832129
64	0xbef7667d	-0.4832038
65	0xbe8f4a60	-0.2798643
66	0x3f507bd2	0.81438935
67	0x3ef9b637	0.4877183
68	0x3e9a4a92	0.30135018
69	0x3e8ffa54	0.28120673
70	0x3e7d4126	0.24731883
71	0x3ef1b8a3	0.4721118
72	0xbe378aeb	-0.17924087
73	0x3eb144eb	0.34622893
74	0xbf19a9c9	-0.60024697
75	0xbe0a53fc	-0.135086
76	0x3f24b0e7	0.6433243
77	0xbe934748	-0.2876532
78	0xbe288155	-0.16455586
79	0x3f03f89a	0.5155121
80	0x3e972d9d	0.29526988
81	0xbedb7635	-0.42863622
82	0x3efaee46	0.49009913
83	0xbd8d4818	-0.068985164
84	0x3ebcda0e	0.36885113
85	0x3de7d9ef	0.113208644
86	0xbe9f11d8	-0.310683
87	0x3e8a19ca	0.269728
88	0x3ed62675	0.41826215
89	0x3c86f659	0.01647489
90	0xbf2cee53	-0.67551154
91	0x3f0cdd87	0.55025524
92	0xbedc5765	-0.43035427
93	0xbde4acc8	-0.11165768
94	0x3d8ceafe	0.06880759
95	0xbdcd17c7	-0.10014301
96	0x3e5cbd24	0.21556526
97	0xbee92173	-0.45533332
98	0xbeb9c081	-0.3627968
99	0xbe34404c	-0.17602652
100	0x3e61638c	0.2201063
101	0x3ee74cb9	0.45175722
102	0x3f3d7028	0.7399926
103	0xbe0af964	-0.13571697
104	0x3f313b8c	0.69231486
105	0xbea5adc8	-0.32359147
106	0xbebba809	-0.36651638
107	0xbe3d03d4	-0.18458492
108	0x3ca310f4	0.019905545
109	0x3f5a72b4	0.85331273
110	0x3c0313c5	0.008000319
111	0x3db87a96	0.090077564
112	0x3bb5119c	0.005525781
113	0xbed04e1b	-0.4068459
114	0xbe87c4a0	-0.265172
115	0xbcdfa949	-0.027302401
116	0x3cabd5d2	0.02097598
117	0xbf0b259b	-0.54354256
118	0x3f148097	0.5800871
119	0x3efd2753	0.49444064
120	0x3c49f12d	0.012325567
121	0xbf5b7ff8	-0.8574214
122	0xbe86ad74	-0.2630421
123	0xbe100fad	-0.1406848
124	0x3e178e0b	0.14800279
125	0xbdceccc0	-0.10097647
126	0xbe55c7c6	-0.20876989
127	0xbe02d45b	-0.1277632

lfmodel.net_scale.layer_3.weight f4 [128, 128]
0	0xbd0b87c7	-0.034065034
1	0x3d8d606d	0.069031574
2	0x3db04845	0.08607534
3	0xbc5f3f00	-0.01362586
4	0x3d8579a8	0.06517345
5	0x3c9928cd	0.018696213
6	0xbd9c7cdd	-0.07641003
7	0xbdb0d248	-0.08633858
8	0xbcdacce3	-0.026709026
9	0xbdeb7804	-0.114975005
10	0x3da1052a	0.07862313
11	0x3d0d0f50	0.03443843
12	0x3bd44284	0.006477656
13	0xbe07c1c1	-0.13257505
14	0x3d27cd7e	0.040967457
15	0xbd12647d	-0.035740364
16	0xbd02c1a5	-0.031922955
17	0x3b2feadd	0.002684287
18	0xbdde6255	-0.10858599
19	0xbc69e747	-0.014276332
20	0xbccacd9d	-0.024756247
21	0xbc8d8837	-0.017276866
22	0x3d828cfa	0.063745454
23	0x3cc01dd1	0.023451718
24	0xbdb3143b	-0.08744093
25	0x3da61771	0.0810994
26	0x3e13cca5	0.14433534
27	0xbd1f2d6d	-0.03886168
28	0xbc824764	-0.015903182
29	0xbd0eba4d	-0.03484564
30	0x3d3e5de6	0.046476267
31	0xbd947046	-0.07247977
32	0x3d61abf5	0.05509563
33	0xbd082198	-0.033235162
34	0xbd4730cd	-0.048630524
35	0xbcb2cdc2	-0.021826629
36	0x3dbf1922	0.093309656
37	0xbdd3e8eb	-0.1034716
38	0xbdb5462d	-0.088512756
39	0xbd09ae5a	-0.03361354
40	0xbcceec10	-0.025259048
41	0xbc0d621d	-0.008629349
42	0x3cecbb29	0.028897839
43	0x3d774993	0.0603729
44	0xbc952261	-0.01820487
45	0x3d09198f	0.03347164
46	0xbc9d05e4	-0.019167848
47	0x3c2b1551	0.010442094
48	0xbd4dfddf	-0.05029094
49	0x3c83c7a5	0.016086409
50	0xbba8c1e5	-0.005150067
51	0xba8c01c7	-0.0010681682
52	0xbd633ecc	-0.05547981
53	0xbd47f3e9	-0.048816595
54	0x3cfbd4d0	0.030741125
55	0x3dedf05c	0.116181105
56	0x3cbd511b	0.023109963
57	0xbcab60fa	-0.020920265
58	0x3cf82720	0.030292094
59	0x3cdfd4ff	0.027323244
60	0x3d0c9ee4	0.034331217
61	0x3e3089ac	0.17240018
62	0x3d4c0d83	0.049817573
63	0x3cb0f1d6	0.021599691
64	0x3c831178	0.01599954
65	0x3d26e9b3	0.040750217
66	0xbe395b74	-0.18101293
67	0x3d212b4f	0.039347943
68	0xbd94559c	-0.07242891
69	0x3d31e1ba	0.04342816
70	0x3c22b2b6	0.009930303
71	0xbdb99bd4	-0.09062925
72	0xbd4ead35	-0.05045815
73	0x3d112355	0.035434086
74	0x3ce38fc8	0.027778521
75	0x3ca2cb3e	0.019872304
76	0x3eb11e6e	0.34593529
77	0x3d1597ce	0.036521725
78	0x3ce62b69	0.028096871
79	0xbd23d314	-0.03999622
80	0x3da890a8	0.08230716
81	0xbd2f2908	-0.04276374
82	0x3d20a206	0.039217018
83	0x3da0d6e8	0.0785349
84	0x3d2a06d5	0.04151042
85	0x3c1e4bac	0.009661596
86	0xbc5c68b8	-0.013452701
87	0x3d4c477b	0.049872857
88	0xbdabface	-0.083974466
89	0xbd96ee7b	-0.07369705
90	0x3d1c66dc	0.03818403
91	0x3db907f6	0.090347216
92	0x3c998d89	0.018744247
93	0xbcbd589b	-0.02311354
94	0x3cd71a99	0.0262578
95	0xbce69dc1	-0.028151395
96	0xbbe92850	-0.0071154013
97	0x3dcc2a5f	0.09969019
98	0x3c8e21f3	0.017350173
99	0x3d3b2247	0.045686986
100	0x3e077f43	0.1323214
101	0xbdaa90b9	-0.08328385
102	0xbbc4f71a	-0.006010902
103	0xbd539b39	-0.051661704
104	0x3e4ecdea	0.20195737
105	0x3ccbf7ce	0.024898436
106	0x3d10832b	0.03528134
107	0x3d9c09d8	0.07619065
108	0xbd5c15e0	-0.0537318
109	0xbd54e7fd	-0.051979054
110	0x3d0f1e1a	0.034940816
111	0xbd3c7698	-0.046011537
112	0xbd97149c	-0.07376978
113	0xbcdf7e89	-0.027282016
114	0xbd623e95	-0.055235464
115	0xbb369bca	-0.0027863854
116	0xbc06bae1	-0.008223266
117	0xbe23433f	-0.15943621
118	0x3d1c1dc4	0.038114324
119	0xbce032fe	-0.027368065
120	0xbdbb5ef2	-0.09148969
121	0x3da98b5b	0.08278533
122	0x3d819692	0.06327547
123	0xbd73cb45	-0.059520025
124	0xbe89e4aa	-0.2693227
125	0xbdd20d6c	-0.10256466
126	0x3d556109	0.052094493
127	0x3d9af3a6	0.075660035
128	0x3b532f55	0.0032224257
129	0x3d01aace	0.031657033
130	0xbd32ebca	-0.043681897
131	0xbcd7824b	-0.026307246
132	0xbd7e7c18	-0.062130064
133	0xbb633230	-0.0034667365
134	0x3a999c1b	0.0011719497
135	0x3c2c8ba7	0.010531343
136	0x3cbac455	0.022798697
137	0x3bc5cf34	0.0060366634
138	0x3d4ca98d	0.049966384
139	0xbd007e00	-0.031370163
140	0xbe004e27	-0.12529813
141	0x3dd1c5c5	0.102428
142	0x3d969efe	0.07354544
143	0x3d8ca003	0.06866457
144	0xbdc23d3f	-0.09484338
145	0x3de0a254	0.10968462
146	0x3de08120	0.10962129
147	0xbc6d351c	-0.014477994
148	0x3cf12285	0.029435406
149	0x3d57bf3c	0.05267261
150	0xbdabea77	-0.0839433
151	0xbd198cbb	-0.037487727
152	0x3e225ddb	0.15856116
153	0x3c646255	0.01393946
154	0xbe4cd4c0	-0.20003033
155	0x3d93a1f4	0.072086245
156	0xbcf080c1	-0.02935827
157	0x3cd7e9d9	0.026356624
158	0x3cbda534	0.023150064
159	0x3d9d00db	0.07666179
160	0xbd8a7731	-0.06761015
161	0x3d941b51	0.07231773
162	0x3d5c6892	0.053810664
163	0x3d6d43fa	0.057926156
164	0x3d362ee1	0.0444783
165	0xbda79975	-0.081835665
166	0x3d4ceff0	0.05003351
167	0x3da09d07	0.078424506
168	0xbb6c3b4b	-0.0036046084
169	0x3ce1ad68	0.027548507
170	0x3cdc04ce	0.02685776
171	0x3dd73ecd	0.10510025
172	0xbdb7c68c	-0.08973417
173	0xbd8a72b1	-0.06760157
174	0xbca5d600	-0.020243645
175	0x3c7e85dc	0.015534844
176	0x3da0b988	0.07847887
177	0xbb48aba5	-0.0030619886
178	0xbcdab0ed	-0.026695693
179	0x3c9aaf22	0.018882338
180	0x3bf4148a	0.0074487375
181	0x3d834ed2	0.06411518
182	0x3d2f57da	0.04280839
183	0xbd423e9b	-0.047422986
184	0xbd9f2e28	-0.077724755
185	0xbc9642ef	-0.018342463
186	0x3d9736b5	0.073834814
187	0x3d60cd55	0.05488332
188	0xbdb665f9	-0.089061685
189	0xbe3b3938	-0.18283546
190	0x3d190e26	0.03736701
191	0x3d84bf54	0.064818054
192	0xbdca4dee	-0.09878145
193	0x3d366d97	0.044538107
194	0x3e03c732	0.12868956
195	0xbd30e1db	-0.043184143
196	0xbcc28b8a	-0.023748178
197	0xbc91a998	-0.017781064
198	0xbb10f2cc	-0.0022117374
199	0x3d22383d	0.039604414
200	0xbbe357cb	-0.006937956
201	0x3b8f7cd0	0.0043788925
202	0x3d856a1a	0.06514378
203	0xbc9b4805	-0.01895524
204	0xbea1304c	-0.3148216
205	0xbd95e523	-0.07319095
206	0xbca2c8d7	-0.019871159
207	0x3d014392	0.03155858
208	0xbd4e181d	-0.050315965
209	0xbbc86b38	-0.006116297
210	0x3dfc6d81	0.12325574
211	0xbd2aaab6	-0.04166671
212	0xbc1bdeaa	-0.0095135365
213	0x3d77280c	0.060340926
214	0x3cd3a9c5	0.025837788
215	0xbd348b50	-0.04407817
216	0x3d4ea6f7	0.0504522
217	0x3ca572d3	0.020196354
218	0xbd4a0489	-0.04932073
219	0xbe1e9740	-0.15487385
220	0xbd8e2221	-0.06940103
221	0xbd2103ce	-0.03931027
222	0x3da8d8a6	0.082444474
223	0xbd769ac4	-0.06020619
224	0xbc758f97	-0.014987848
225	0x3c9c92fb	0.019113054
226	0x3cb42520	0.021990359
227	0xbd461f2a	-0.048369564
228	0xbd05510e	-0.032548003
229	0xbbc68ca3	-0.0060592457
230	0x3e0b53e9	0.13606228
231	0x3d87b2fd	0.06625936
232	0xbe42bb1d	-0.1901669
233	0xbd854bbd	-0.065085866
234	0x3cefeed8	0.029288694
235	0xbd9134d8	-0.07090157
236	0x3d0df6a7	0.034659054
237	0x3bb506ab	0.0055244765
238	0x3bfbd0cd	0.007684803
239	0xbc211ce0	-0.0098335445
240	0x3b30ef9a	0.0026998282
241	0xbc990c30	-0.01868257
242	0xbd19301e	-0.037399404
243	0x3d808e25	0.06277112
244	0x3c1da1ff	0.009621142
245	0x3e4e2c3b	0.2013406
246	0x3dd7295e	0.10505937
247	0x3d905f89	0.07049472
248	0x3d237891	0.039909903
249	0xbd8dda6b	-0.069264255
250	0x3c594980	0.013262153
251	0x3c620910	0.013796106
252	0x3e56e141	0.20984365
253	0x3dd1be58	0.10241383
254	0xbde99910	-0.114061475
255	0x3d699c07	0.057033565

lfmodel.net_scale.layer_3.bias f4 [128]
0	0x3cf019d0	0.029309183
1	0x3dc30cdd	0.09523938
2	0x3cdb492f	0.026768295
3	0x3d79a17a	0.06094501
4	0xbd34725b	-0.04405437
5	0xbcf1b854	-0.02950684
6	0xbbc665e8	-0.0060546286
7	0x3d7f5e6b	0.062345903
8	0x3c5ecb6d	0.013598305
9	0xbcde0eec	-0.027106725
10	0xbc9f0a04	-0.019413956
11	0xbdaa04f4	-0.08301726
12	0xbd520419	-0.05127344
13	0xbbf09de5	-0.0073430412
14	0xbc8ca34d	-0.017167712
15	0x3bd89696	0.006609748
16	0x3b7fb3ae	0.003901701
17	0xbd23fb37	-0.0400345
18	0x3d121678	0.03566596
19	0xbc78f378	-0.015194766
20	0xbdd98341	-0.10620738
21	0x3d5e339b	0.054248434
22	0x3d6b3de0	0.057432055
23	0x3d39aa0f	0.045328196
24	0xbcd64e7a	-0.026160467
25	0xbc14e38b	-0.009087454
26	0xbd40324d	-0.04692297
27	0xbcb4cc8a	-0.022070188
28	0xbcbb7015	-0.022880593
29	0x3c85f005	0.016349802
30	0xbd12ee04	-0.03587152
31	0xbdb04286	-0.08606438
32	0x3d426c80	0.047466755
33	0xbc411f9b	-0.0117873205
34	0x3d48bd40	0.049008608
35	0x3bbead94	0.005819032
36	0xbd0e07af	-0.034675296
37	0x3da1a9d6	0.07893722
38	0xbd2ee628	-0.042699963
39	0xbb596ef5	-0.0033177708
40	0xbd77725a	-0.06041179
41	0x3d7b754b	0.061391156
42	0xbd2c7808	-0.04210666
43	0xbcf0a704	-0.029376514
44	0x3db083d6	0.08618896
45	0x3ec2ca2b	0.38044867
46	0x3cfd4ca3	0.030920332
47	0xbcc30f44	-0.02381099
48	0x3d29af28	0.041426808
49	0xbd47067f	-0.04859018
50	0x3d62dd46	0.055386804
51	0x3c595bd3	0.0132665215
52	0x3ccc72de	0.024957117
53	0x3d1e0b35	0.038584907
54	0xbdcaee25	-0.09908704
55	0x3dbf7ec7	0.09350353
56	0xbbc31e1a	-0.005954516
57	0x3d93ff5f	0.072264425
58	0xbd494a64	-0.04914321
59	0xbdc38082	-0.09545995
60	0x3cc44939	0.023960697
61	0x3d85c8a0	0.06532407
62	0xbdfd440a	-0.12366493
63	0x3d4f5880	0.05062151
64	0xbd958eb8	-0.07302612
65	0xbccc0192	-0.024903093
66	0x3adfc933	0.0017073512
67	0xbb029543	-0.0019925393
68	0xbde86769	-0.11347849
69	0x3ba5c2fe	0.0050586453
70	0xbc37d864	-0.011221025
71	0x3da323d8	0.07965821
72	0x3cc6ffa8	0.024291828
73	0xbdd133f2	-0.10214986
74	0x3d12c9a7	0.035836842
75	0xbd8be589	-0.0683089
76	0xbd2c94ec	-0.04213421
77	0xbdef456d	-0.11683164
78	0x3bb5138a	0.005526011
79	0xbe2ce848	-0.16885483
80	0xbb652c03	-0.003496886
81	0x3d56d6e9	0.052451048
82	0xbd198602	-0.037481315
83	0x3d76c7e4	0.060249224
84	0xbd974244	-0.07385686
85	0x3d9f0cfa	0.07766147
86	0xbd429f1b	-0.047515016
87	0x3d720a72	0.059091993
88	0xbccf9a90	-0.025342256
89	0xbdde7fde	-0.108642325
90	0xbcf1abfc	-0.029500954
91	0xbcbecb89	-0.023290413
92	0xbdc850b3	-0.09781017
93	0xbcf8bb84	-0.030362852
94	0xbcac2434	-0.021013357
95	0xbcc2415b	-0.023712805
96	0xbdaa5b7c	-0.083182305
97	0xbdaf4110	-0.085573316
98	0xbcd32f88	-0.0257795
99	0x3d2bfd20	0.041989446
100	0x3dad4e6f	0.08462226
101	0xbd8f1eee	-0.06988321
102	0xbdb4eb1d	-0.08833907
103	0x3c185686	0.009297973
104	0x3ae0c628	0.0017148899
105	0xbd21e485	-0.039524574
106	0xbceb8f62	-0.028754894
107	0x3d680196	0.056642137
108	0xba9c6aeb	-0.001193372
109	0xbd2b6e36	-0.041853152
110	0xbab12e33	-0.0013517797
111	0x3d9d19fd	0.076709725
112	0x3dd4f825	0.10398892
113	0x3ce77144	0.028252251
114	0x3c606980	0.013697028
115	0x3ddce99c	0.10786745
116	0xbcf9e1fc	-0.030503266
117	0x3da38ab1	0.07985438
118	0x3cbd1b20	0.023084223
119	0x3db36f80	0.08761501
120	0xbd05b4db	-0.03264318
121	0xbda5b4c5	-0.0809112
122	0xbda00413	-0.07813277
123	0x3dc793c1	0.09744979
124	0xbdc7bde1	-0.097530134
125	0x3d076fd6	0.03306564
126	0x3d25ae2b	0.040449303
127	0xbd692289	-0.0569177

lfmodel.net_scale.layer_6.weight f4 [1, 128]
0	0xbb15f6f2	-0.0022882787
1	0x3c0ea327	0.008705891
2	0x3c49e7b8	0.012323312
3	0x3c1be963	0.009516093
4	0xbc8a936a	-0.016915996
5	0xbc1a920c	-0.009434234
6	0xbca25c7b	-0.019819489
7	0x3c85f896	0.016353887
8	0xbc68ee2c	-0.014216941
9	0xbc47f518	-0.012204431
10	0xbc38792c	-0.011259358
11	0xbbf62668	-0.0075119026
12	0xbc2308a0	-0.009950787
13	0xbc2b065a	-0.010438526
14	0xbc6ebde5	-0.014571642
15	0xbcac41a0	-0.021027386
16	0x3c194675	0.009355177
17	0xbc77dca8	-0.015128292
18	0xbc4183cc	-0.011811208
19	0x3c1cf37e	0.009579537
20	0xbcc96cda	-0.024588037
21	0x3c02093f	0.007936775
22	0x3b9e5433	0.0048318147
23	0xbbd68c0f	-0.006547458
24	0x3c350ed7	0.011050901
25	0x3c80381c	0.015651755
26	0xbc689e6e	-0.014197929
27	0x3c2c0458	0.0104990825
28	0x3b889f42	0.0041693756
29	0x3b4b8893	0.0031056746
30	0xbc7ef163	-0.015560481
31	0xbc3d304f	-0.011547162
32	0xbccb9809	-0.02485277
33	0xbc885618	-0.016642615
34	0xbbbeff39	-0.0058287648
35	0xbb57f058	-0.0032949653
36	0x3c99beba	0.018767703
37	0x3c25eee7	0.01012776
38	0xbbe1261c	-0.006870998
39	0xbc755168	-0.014973022
40	0xbc063eb3	-0.00819366
41	0x3c9e46e0	0.019320905
42	0xbbe9c65f	-0.0071342434
43	0xbc101615	-0.008794327
44	0x3c1b0db8	0.00946372
45	0xbcaa0e1e	-0.020758685
46	0xbc3976d7	-0.0113198375
47	0xbb7e0775	-0.003876177
48	0x3c2e2274	0.010628331
49	0xbb4c8a58	-0.003121039
50	0x3bdae282	0.006679834
51	0x3c1815fe	0.009282587
52	0xbc7803f3	-0.01513766
53	0xbc438b08	-0.011935003
54	0xbc9798e4	-0.018505521
55	0x3bc8b6a1	0.0061252867
56	0xbc9dec12	-0.019277606
57	0x3c02f3bb	0.00799268
58	0xbc093145	-0.008373563
59	0xbc4d68f3	-0.012537229
60	0x3c12c229	0.008957424
61	0x3bb6d8ec	0.0055800583
62	0xbc60e28c	-0.013725888
63	0xbbbd76bc	-0.0057819765
64	0x3c69f22e	0.014278932
65	0xbc368898	-0.011140965
66	0xbc594127	-0.013260162
67	0x3c96894f	0.01837602
68	0xbc90f029	-0.017692642
69	0xbc2f605f	-0.010704129
70	0xbc4d66aa	-0.012536684
71	0x3c1f31df	0.00971648
72	0xbba3314f	-0.0049802433
73	0xbc3f5500	-0.01167798
74	0x3c23bdfa	0.009994024
75	0xbc111c73	-0.0088568805
76	0xbc6cd5e7	-0.014455295
77	0xbc943ed7	-0.01809637
78	0x3bc3aeef	0.0059717814
79	0x3cbaccc3	0.022802716
80	0x3bd6bd5a	0.006553334
81	0x3ca382ee	0.019959893
82	0xbc01ae87	-0.007915146
83	0x3c936e37	0.01799689
84	0xba87407f	-0.0010318904
85	0x3c29bedd	0.010360447
86	0xbca0d0dd	-0.019630844
87	0xbcf0934f	-0.029367117
88	0xbc10012a	-0.00878934
89	0xbc3b04e6	-0.011414742
90	0xbc8e8320	-0.01739651
91	0xbb834487	-0.004005972
92	0xbc1bb5cd	-0.009503794
93	0x3cad6056	0.0211641
94	0xbc89ea5c	-0.016835384
95	0x3c566df8	0.013087742
96	0xbc5e56b4	-0.013570476
97	0xbc19f378	-0.009396426
98	0xbc4cecf5	-0.012507667
99	0x3c5effc3	0.013610783
100	0xbcda9fbf	-0.026687501
101	0xbbdf07ab	-0.006806334
102	0xbbc7d5a1	-0.0060984646
103	0x3c4aa0b8	0.01236742
104	0xbcd0c37a	-0.025483835
105	0x3c5f28eb	0.013620595
106	0xbbda3078	-0.00665861
107	0x3b99bad2	0.00469146
108	0x3c4af1dc	0.012386765
109	0x3b96b0fa	0.004598734
110	0x3c48ac38	0.012248091
111	0x3c412742	0.011789145
112	0x3beaa66a	0.0071609514
113	0xbbed80fe	-0.007248043
114	0x3bb6da6f	0.0055802385
115	0x3c132bc7	0.008982605
116	0xbc8237b0	-0.015895694
117	0x3c26097d	0.010134098
118	0xbcb427c2	-0.021991614
119	0x3c1e321e	0.009655504
120	0x3bdc697b	0.0067264414
121	0xbb48ba4c	-0.003062862
122	0xbb888ad7	-0.0041669416
123	0x3ca7eb87	0.02049805
124	0xbc5ed09e	-0.013599543
125	0xbc522847	-0.012826986
126	0x3cf17b72	0.029477809
127	0xbc307203	-0.01076937

net_scale.layer_1.weight f4 [256, 3]
0	0xbe9d5f0d	-0.3073658
1	0xbe8ce3bf	-0.27517506
2	0xbef1f30b	-0.4725574
3	0xbda14209	-0.07873923
4	0x3f592cf6	0.8483423
5	0xbddaef04	-0.1069012
6	0xbf56c5e1	-0.8389569
7	0x3ec7aabf	0.38997456
8	0xc001a0f2	-2.0254483
9	0xbc8abc60	-0.016935527
10	0x3dad5ccc	0.08464965
11	0x419cf06a	19.61739
12	0xbf0a1abd	-0.5394705
13	0x3eb1227e	0.34596628
14	0xbe62067d	-0.22072788
15	0xbd049227	-0.032365944
16	0x3bcb0d94	0.006196687
17	0xc09ee4d9	-4.9654355
18	0xbb811051	-0.0039387126
19	0xbbfd0315	-0.0077213147
20	0xc0003571	-2.0032618
21	0x3f891c38	1.0711737
22	0x3e04e7e9	0.12979092
23	0xbf4934d4	-0.78596234
24	0x3f6fa03b	0.9360387
25	0xbf141db6	-0.57857835
26	0x40b4b0ee	5.646598
27	0x3effa56f	0.49930903
28	0x3e953e90	0.29149294
29	0xc02de499	-2.7170775
30	0xbe50d889	-0.20395102
31	0xbe32a04f	-0.17443965
32	0x3fcb170c	1.5866408
33	0xbd584557	-0.052800503
34	0xba6bfea3	-0.00090024824
35	0x41be54cc	23.791405
36	0x3e9302a5	0.28712955
37	0xbf338f5a	-0.7014061
38	0x3e5c6634	0.21523362
39	0x3f9ed9be	1.24102
40	0x3d67fded	0.056638647
41	0xc0c3b873	-6.116266
42	0x3b855055	0.004068414
43	0xbf6dc0bc	-0.92872214
44	0x3ed1ef0b	0.41002688
45	0x3f64271b	0.8912217
46	0xbe20f29f	-0.15717553
47	0x3fb86ff6	1.4409168
48	0x3f6ed2db	0.9329049
49	0xbf0f36b1	-0.5594283
50	0x40b279ff	5.577392
51	0xbf9bfe50	-1.2186985
52	0x3e83ec97	0.2576644
53	0xc0ac0ab5	-5.376307
54	0xbf2f8919	-0.6856857
55	0xbf87bafd	-1.0603939
56	0xbecf9ae6	-0.40547866
57	0x3de33fdb	0.11096164
58	0x3d144b63	0.036204707
59	0x40caa029	6.332051
60	0xbf74fd5c	-0.95699096
61	0x3efb1bfd	0.4904479
62	0xc115dcaf	-9.366378
63	0x3d69fa99	0.057123754
64	0xbe20c412	-0.15699795
65	0x40fd07ac	7.9071865
66	0xbe70030a	-0.2343866
67	0x3ea75c7d	0.3268775
68	0x403f683e	2.9907374
69	0xbf8413fd	-1.03186
70	0x3e0f9983	0.14023404
71	0xbfe60584	-1.7970433
72	0x3e34f193	0.17670278
73	0x3f70bcca	0.9403807
74	0xbe59f7ae	-0.21285889
75	0x3f5f96f6	0.87339723
76	0xbec38e90	-0.38194704
77	0x3fcf780a	1.6208508
78	0x3dd06253	0.10175004
79	0x3c5a1141	0.013309778
80	0xc1a9406c	-21.156456
81	0xbeb7701c	-0.3582772
82	0xbf7bf10f	-0.984147
83	0x3d8e4a31	0.06947745
84	0x3e4448d7	0.19168411
85	0x3e1f26da	0.15542164
86	0xbf2e8f30	-0.68187237
87	0xbe29e8b4	-0.16592675
88	0x3d75c1d4	0.059999302
89	0x4183bc74	16.467018
90	0x3f262f8e	0.6491631
91	0xbf00c0a3	-0.5029394
92	0x3fcb5c55	1.5887552
93	0xbea31f73	-0.3185993
94	0xbe39866f	-0.18117689
95	0x3fbe4df8	1.4867544
96	0xbfad7b9f	-1.3553351
97	0x3e906109	0.28199032
98	0xc0bcdabf	-5.9017024
99	0x3f1ec133	0.6201355
100	0x3f89a6c9	1.0754024
101	0x3eab9c27	0.33517572
102	0x3ed517b7	0.41619655
103	0x3c3053ec	0.010762196
104	0x4158ea93	13.557269
105	0xbf2bddbf	-0.6713523
106	0xbdfb5819	-0.12272663
107	0x3f80e5b5	1.0070101
108	0xbf66d1c6	-0.9016384
109	0x3ea13c68	0.314914
110	0xc008753b	-2.1321552
111	0xbe9e62ca	-0.30934745
112	0x3f4211cc	0.75808406
113	0xbf0713c7	-0.5276455
114	0x3f40dedb	0.7534005
115	0xbe26973a	-0.16268626
116	0x40907314	4.5140476
117	0x3ceaa724	0.028644152
118	0x3f61c1de	0.8818644
119	0x3e363110	0.17792153
120	0x3f036501	0.51325995
121	0xbf301d45	-0.6879466
122	0x3f4289db	0.759916
123	0xbd5e0501	-0.05420399
124	0xbd02c428	-0.03192535
125	0xc0b5aca3	-5.677324
126	0x3dea2a6d	0.11433873
127	0x3c7d72a7	0.01546923
128	0xc1ead5da	-29.35442
129	0x3f5e3de6	0.868132
130	0xbe69ca90	-0.22831178
131	0x3f803c9d	1.0018498
132	0x3dfb8ff6	0.12283318
133	0x3c3e7a31	0.011625812
134	0xc1e84948	-29.035782
135	0x3d8b1418	0.06790942
136	0xbca5d26e	-0.020241942
137	0xc1bc351c	-23.525932
138	0xbf168709	-0.587998
139	0x3dbe8e26	0.093044564
140	0xc04c0af6	-3.188169
141	0x3f744f51	0.9543353
142	0xbc777520	-0.015103608
143	0x3deb84ec	0.11499962
144	0x3e71c9d7	0.23612152
145	0xbcb19479	-0.021677243
146	0x41aca8e4	21.582466
147	0x3deaadcd	0.11458931
148	0xbe990035	-0.2988297
149	0xc039d12d	-2.903392
150	0x3dc3c3a8	0.09558803
151	0xbf602956	-0.87563074
152	0x3dee1549	0.116251536
153	0xbe7a8b0e	-0.24467108
154	0xbd93f19c	-0.07223818
155	0xc072bd09	-3.7927878
156	0x3c44fb9f	0.012022882
157	0xbf78acf9	-0.97138935
158	0x3ebf8489	0.37405804
159	0x3f5a891b	0.85365456
160	0xbc74726d	-0.014919859
161	0x3f482f07	0.7819676
162	0xbf68cec2	-0.9094049
163	0x3e2195ae	0.15779755
164	0xbfe6d850	-1.8034763
165	0xbe520ae3	-0.20511965
166	0xbe39d6b0	-0.18148303
167	0x3fc93262	1.5718501
168	0x3c9bb950	0.019009262
169	0x3de482f5	0.111577906
170	0x4121ef2d	10.120893
171	0x3e7bfc22	0.246079
172	0xbdabeb3e	-0.08394478
173	0x4197ce7f	18.975828
174	0xbf134041	-0.5751992
175	0x3f02790b	0.50965947
176	0xbf9fc89e	-1.2483099
177	0xbf17a7b4	-0.5924027
178	0xbf8db4dd	-1.107082
179	0xbe17bdcd	-0.14818497
180	0xbe78b90b	-0.24289338
181	0xbe089127	-0.13336621
182	0x3f90d766	1.1315734
183	0x3eac7ee9	0.33690575
184	0x3e16785e	0.14694354
185	0x3d0bd604	0.034139648
186	0xbd41d720	-0.0473243
187	0xbcd2e4fa	-0.02574395
188	0xc1f2a240	-30.329224
189	0x3f0c91b9	0.54909855
190	0xbefc1014	-0.49231017
191	0x3fa913de	1.3209188
192	0xbe515af7	-0.20444857
193	0xbe27d81c	-0.16391033
194	0x3d75cfed	0.060012747
195	0x3d8cf185	0.06882004
196	0x3d0149e9	0.031564627
197	0x41f195f0	30.198212
198	0xbdc23c35	-0.0948414
199	0x3f513e9d	0.81736165
200	0x3eecd895	0.4625899
201	0x3d6812fd	0.056658734
202	0x3f7114d9	0.94172436
203	0xbe24f8e0	-0.16110563
204	0x3d1c0ac7	0.038096216
205	0x3cf275af	0.029597132
206	0x4179cc96	15.612448
207	0xbdd4dce2	-0.103936926
208	0xbc918ea8	-0.01776822
209	0x41f785c5	30.940317
210	0xbe1b0924	-0.15140206
211	0xbe2da3b3	-0.16956978
212	0x3dc143b5	0.09436742
213	0x3e0d9c12	0.13829067
214	0x3deec35a	0.11658354
215	0x40654a23	3.58265
216	0xbf0afe8d	-0.54294664
217	0x3ee2e265	0.4431335
218	0xbee99f34	-0.45629275
219	0xbf141bed	-0.5785511
220	0xbf862c99	-1.048236
221	0x3e5d0f04	0.2158776
222	0xbf867469	-1.0504276
223	0x3f11c9d5	0.56948596
224	0xc0bc9598	-5.893261
225	0x3f88fd38	1.0702276
226	0xbf1665b8	-0.5874896
227	0x40fc1977	7.8781085
228	0x3fa5ba98	1.2947569
229	0xbd9b93f8	-0.07596582
230	0x3e75abef	0.23991369
231	0xbebd4029	-0.36963013
232	0xbe281fc7	-0.16418372
233	0x3fede1d3	1.8584541
234	0xbe787ea1	-0.24267055
235	0xba8b818b	-0.0010643465
236	0xc159b707	-13.607184
237	0x3f02a0cd	0.5102661
238	0xbdbec5c0	-0.093150616
239	0x40784f63	3.8798454
240	0x3f3f8df7	0.74825996
241	0x3e222475	0.1583422
242	0xbfe4146e	-1.7818735
243	0xbf8e7466	-1.1129272
244	0x3f0abc3b	0.54193467
245	0xc1052bb3	-8.323169
246	0x3f49f6a9	0.78892
247	0xbe00dbc5	-0.12583835
248	0x40101d58	2.251791
249	0x3dc25baf	0.094901435
250	0xbd5c229f	-0.053743955
251	0xc1a7fdc0	-20.998901
252	0xbfdcfac9	-1.7264034
253	0x3e91f9f8	0.28511024
254	0xc0516bbe	-3.272201
255	0xbb9bff65	-0.00476067

net_scale.layer_1.bias f4 [256]
0	0x3fafda6b	1.3738531
1	0xbe502766	-0.2032753
2	0xbe9036c7	-0.28166792
3	0xbf2f5a4c	-0.6849716
4	0xbfdae5e2	-1.7101405
5	0x3e2715b2	0.1631687
6	0x3dacf5e7	0.0844534
7	0xbfb578e6	-1.417752
8	0x3f9d3430	1.2281551
9	0xbfb7bfae	-1.4355371
10	0x3f8d6594	1.1046624
11	0x3dd694dc	0.104776114
12	0xbf152452	-0.58258545
13	0xbf33f9b7	-0.7030291
14	0xbceb598d	-0.028729225
15	0x3ebf9f76	0.37426347
16	0x3f8067c7	1.003167
17	0x3df27a38	0.118397176
18	0xbf60293c	-0.8756292
19	0xbf010763	-0.50401896
20	0xbf0aede1	-0.54269224
21	0x3f1a7386	0.60332525
22	0xbfd086b2	-1.6291106
23	0xbe08d27a	-0.1336154
24	0x3f1e2d78	0.6178813
25	0x3ee6cf4c	0.4508003
26	0xbe6788f1	-0.22610833
27	0xbf268dcd	-0.6506012
28	0xbf890bd8	-1.070674
29	0xbe75859e	-0.23976752
30	0x3f1f4994	0.62221646
31	0x3fa9dc21	1.3270303
32	0x3ed6622a	0.41871768
33	0x3e57be35	0.21068652
34	0xbee98457	-0.4560878
35	0x3f9eb4ff	1.2398986
36	0x3ef7868a	0.48344833
37	0xbe1fcba8	-0.15605032
38	0x3eb3a489	0.35086468
39	0x3e9c7c0f	0.305634
40	0x3f200fd0	0.6252413
41	0x3ecd6743	0.40117845
42	0xbe510428	-0.20411742
43	0x3f97000a	1.1796887
44	0xbe703cf0	-0.23460746
45	0x3da4b86d	0.08042989
46	0xbc13641f	-0.008996039
47	0xbf17648d	-0.59137803
48	0xbd49ceca	-0.049269475
49	0x3fb857ad	1.4401757
50	0xbeeab37b	-0.45840058
51	0x3f40e525	0.75349647
52	0xbec6135d	-0.38686648
53	0xbf045168	-0.51686716
54	0xbe9b5b6b	-0.30343184
55	0x3f8e8f06	1.1137397
56	0xbf5e1a2b	-0.8675868
57	0x3e94b458	0.2904384
58	0xbe8c90bb	-0.2745417
59	0xbe0f0199	-0.13965453
60	0x3f817a8a	1.0115521
61	0xbf9c2bf2	-1.2200911
62	0x3e236da4	0.15959793
63	0x3e893fd8	0.2680652
64	0x3f8e7521	1.1129495
65	0xbe6ed6ce	-0.23324129
66	0x3e629a5c	0.22129196
67	0x3e5673aa	0.2094256
68	0xbed79af6	-0.42110413
69	0x3e5b7235	0.21430285
70	0x3f8d6811	1.1047384
71	0xbf6fddbf	-0.9369773
72	0x3f0477fc	0.5174558
73	0xbf656981	-0.8961411
74	0xbf5fb54a	-0.87386
75	0x3f334b1e	0.70036495
76	0xbee6113e	-0.4493503
77	0x3f9fa8c2	1.2473376
78	0x3ec8e9cc	0.39240873
79	0x3e0fb480	0.14033699
80	0xbfbc7d2a	-1.4725697
81	0xbed84a62	-0.4224425
82	0x3dd2ebf3	0.1029891
83	0x3ed37c38	0.4130571
84	0x3e816888	0.25275064
85	0x3eb53e7b	0.3539923
86	0x3e1f6f79	0.15569867
87	0xbfbff1c7	-1.499566
88	0x3fa56981	1.2922822
89	0x3f2e1262	0.679968
90	0x3e8ed94c	0.2790016
91	0x3f3f6dba	0.74776804
92	0xbf2ed11f	-0.68287843
93	0x3e62b418	0.22139013
94	0x3edca5d2	0.4309526
95	0x3f1d890e	0.61537254
96	0xbebe844f	-0.37210318
97	0xbee77ac6	-0.45210856
98	0x3f911283	1.1333774
99	0x3f2844fe	0.65730274
100	0x3c0ed957	0.00871881
101	0xbeff44c2	-0.49857146
102	0x3e531d63	0.20616679
103	0xbda9b9b2	-0.08287372
104	0xbeace44d	-0.3376793
105	0x3f4ee259	0.8081413
106	0xbfd8926d	-1.6919686
107	0xbf390585	-0.7227405
108	0xbf23d4e7	-0.6399674
109	0x3e28c25b	0.1648039
110	0x3ec6f830	0.38861227
111	0xbfb44b79	-1.4085532
112	0x3e986560	0.29764843
113	0x3fc1b280	1.5132599
114	0xbee72437	-0.45144817
115	0x3f919b93	1.1375602
116	0xbe2412b3	-0.16022758
117	0x3f1cae93	0.6120388
118	0x3b94abb6	0.004537071
119	0x3eaffb17	0.34371254
120	0x3eb548eb	0.35407194
121	0xbfa5e4c2	-1.2960436
122	0xbf717398	-0.9431701
123	0xbdda7cf8	-0.10668367
124	0xbefc80ff	-0.49317166
125	0xbe2af1ee	-0.16693851
126	0xbde14e0a	-0.11001213
127	0xbf720b68	-0.94548655
128	0x3ec409cc	0.38288724
129	0x3e1a41d0	0.15064168
130	0x3f0e26ce	0.5552796
131	0x3fcfaa84	1.6223912
132	0xbeb94b23	-0.36190137
133	0xbf7e9b7f	-0.9945602
134	0x3f8112a9	1.008382
135	0xbea7ac9c	-0.32748878
136	0xbfe064a4	-1.7530713
137	0xbf949db5	-1.1610628
138	0x3e96ab2b	0.29427466
139	0xbe80ee49	-0.25181797
140	0xbf173d4e	-0.5907792
141	0x3f9759a0	1.1824226
142	0x3ee5ee16	0.44908208
143	0xbf266817	-0.6500258
144	0x3e565148	0.20929444
145	0x3fc0024c	1.5000701
146	0xbe8df616	-0.2772681
147	0xbf9e687b	-1.2375635
148	0x3e2ead66	0.17058334
149	0x3f42892f	0.75990576
150	0x3f8f32ca	1.1187375
151	0x3cb6005b	0.022216966
152	0xbf572b3c	-0.84050345
153	0x3f63343c	0.8875158
154	0x3e250f1f	0.1611905
155	0xbf8fef2a	-1.1244862
156	0xbf090bba	-0.5353352
157	0xbcb6c549	-0.02231087
158	0x3f2f3fab	0.68456525
159	0xbf6b6049	-0.91943794
160	0xbd70e725	-0.058814187
161	0x3f7efae5	0.99601585
162	0xbeabfb18	-0.33590007
163	0x3f68c166	0.909201
164	0xbf1d27ca	-0.6138884
165	0xbf68598b	-0.9076163
166	0xbd13e535	-0.03610726
167	0x3ee03f89	0.43798473
168	0x3f8767fc	1.0578609
169	0xbfab57a7	-1.3386124
170	0xbd55bcc6	-0.05218198
171	0xbe8bcab5	-0.2730309
172	0x3ec9b9aa	0.39399463
173	0xbd82e934	-0.06392136
174	0xbf86ff03	-1.0546573
175	0x3fcc02c1	1.593834
176	0xbf748cd2	-0.95527375
177	0x3e75ea19	0.24015082
178	0x3d0c0d95	0.03419264
179	0xbf9e9752	-1.2389929
180	0xbf31c8e9	-0.6944719
181	0x3ed95d96	0.42454213
182	0xbecf03c0	-0.4043255
183	0xbf84d9a7	-1.0378922
184	0xbf5386a3	-0.82627314
185	0xbf1d65c3	-0.614834
186	0x3f20c8c8	0.6280637
187	0xbf651093	-0.89478415
188	0xbf91cd80	-1.1390839
189	0xbec63889	-0.38715008
190	0x3e6bb861	0.23019554
191	0xbdc4fc34	-0.096184164
192	0x3d9a57c3	0.075362705
193	0xbde57b91	-0.11205209
194	0x3e84d670	0.25944853
195	0xbed0eac3	-0.4080411
196	0x3f9702dd	1.1797749
197	0xbef9e90c	-0.48810613
198	0xbcd04efb	-0.025428286
199	0x3f8d76d9	1.1051894
200	0x3f006734	0.50157475
201	0xbf910a31	-1.1331235
202	0xbef5303c	-0.47888362
203	0xbf1875b0	-0.59554577
204	0x3d2e5af0	0.042567194
205	0x3fe914f1	1.8209516
206	0xbe423d0e	-0.18968603
207	0x3edd57dd	0.43231097
208	0xbeb89e7f	-0.36058423
209	0xbfb467b4	-1.4094148
210	0xbee0efce	-0.43932956
211	0xbf80a992	-1.0051749
212	0x3fc8bdf7	1.5682973
213	0x3e8e81ef	0.27833506
214	0x3fcefe67	1.6171387
215	0xbefd9153	-0.49524936
216	0x3eb1298b	0.34602007
217	0x3e9e0e85	0.30870453
218	0x3f52eb8d	0.8239067
219	0xbf696122	-0.9116384
220	0x3f5d0b43	0.8634531
221	0xbf618505	-0.88093597
222	0xbfd0045f	-1.6251334
223	0x3e26a77f	0.16274832
224	0x3f2d1c85	0.6762164
225	0xbe7e6aea	-0.24845472
226	0xbd917313	-0.07102027
227	0xbfb1bf1c	-1.3886447
228	0x3f05dcb2	0.5228988
229	0x3f8d9d1d	1.1063572
230	0x3da1e3c5	0.07904772
231	0xbeb422b6	-0.35182732
232	0x3f53f72b	0.82799023
233	0xbf53c77d	-0.8272627
234	0xbfcc229e	-1.5948064
235	0x3ffa75db	1.9567217
236	0x3fa2c8d6	1.271754
237	0xbf205f52	-0.6264545
238	0xbf357ac5	-0.70890456
239	0xbf4d63f3	-0.80230635
240	0xbf12f517	-0.5740523
241	0xbecb898f	-0.39753386
242	0x3f9908fe	1.1955869
243	0xbd7452d6	-0.05964931
244	0x40226378	2.537321
245	0x3f4f46cf	0.8096742
246	0xbf251ac1	-0.6449395
247	0x3f2087aa	0.62707007
248	0xbf00cbe3	-0.50311106
249	0x3ee466bb	0.44609627
250	0x3f33d6c0	0.7024956
251	0x3f4d8c50	0.80292225
252	0x3eeb457d	0.45951453
253	0x3f28e423	0.6597311
254	0x3ed26ff6	0.41101044
255	0xbf761b52	-0.9613544
